models/lstm.pth (torch, 26865 bytes, 10 tensors)

lstm.weight_ih_l0 f4 [84, 4]
000000 b3 4a 8d be f2 84 1f be 0b b0 4e 3e 95 79 08 bf
       -0.27596053 -0.15578058 0.20184343 -0.5331052
000010 6e d5 0d 3f 99 5f 87 bd 45 75 64 be e7 57 39 bf
       0.5540379 -0.06610031 -0.2231036 -0.72399753
000020 f6 21 d6 bd 42 c0 1d bd f0 2f 35 3e 7e 17 1d bd
       -0.10455696 -0.03851343 0.17694068 -0.038352482
000030 66 1a a6 3d f8 30 b7 3e f5 36 8e be f2 40 51 3e
       0.08110504 0.35779548 -0.27776304 0.20434931
000040 09 f1 ae 3e bd 15 60 3c d9 d4 3c 3c 2d 8a 1b 3e
       0.3416827 0.013677058 0.011525356 0.15189429
000050 00 1d 91 3e bb 66 1a 3e 4f 17 9e 3d 40 e7 e6 3e
       0.28342438 0.15078251 0.077192895 0.45098305
000060 a0 bf 3a bd 3d c7 43 bd 79 d1 cb bd 2d 23 7b 3e
       -0.045592904 -0.04779743 -0.09952063 0.24525137
000070 4a 8c 4c 3e 47 36 3e be 16 08 fd 3c 6e 5b 00 bf
       0.19975391 -0.18575393 0.030887645 -0.5013951
000080 f3 12 12 3a 19 eb b1 3c 60 c7 69 be 6d 64 d7 3e
       0.00055722817 0.021718549 -0.22829962 0.42068806
000090 ad 64 95 be 9c 24 ee 3d 14 15 ac be 8a b3 0c bf
       -0.29178372 0.116280764 -0.3360983 -0.54961455
0000a0 2e 19 d2 bd d2 15 20 3e a7 e4 2c be ad 90 d9 be
       -0.10258709 0.15633324 -0.16884099 -0.4249319
0000b0 e8 f0 a5 3e 31 6e ae 3e 34 69 18 3d b0 86 48 3c
       0.3241036 0.34068444 0.037209705 0.012239143
0000c0 5c 1e 8b bd e6 8f 16 be 50 21 93 3e 45 f5 2b bf
       -0.067929 -0.1470333 0.28736353 -0.67171127
0000d0 2d 77 88 3e 31 34 3e 3e 7f 52 89 be f4 5b ba 3c
       0.26653424 0.18574597 -0.26820752 0.022748925
0000e0 3f d5 10 bc 7d db 0c be 6e 3c a6 3d e2 4e 9a bd
       -0.008839904 -0.13755603 0.08116995 -0.07534577
0000f0 d0 79 d2 3e 00 70 27 be a9 a7 12 be 91 11 b7 3e
       0.4110856 -0.16351318 -0.1432177 0.3575559
000100 c2 4e 8a 3d 16 14 55 3d 2d 29 b3 3b 97 45 ca 3e
       0.06753303 0.05202111 0.005467555 0.39506218
000110 ef ac fa 3e bc fc 9b 3e 37 65 55 be da 8b ef 3e
       0.48960063 0.3046626 -0.20839392 0.46786386
000120 2a 6b 8d bc 88 98 2d be d6 84 63 3b 92 f9 8f 3c
       -0.017263014 -0.16952717 0.0034716628 0.01757506
000130 bd 46 fe 3d 98 71 82 be 9a 19 e8 be d8 05 26 bf
       0.12415836 -0.2547729 -0.45332032 -0.64852667
000140 f3 a2 00 bc cb c8 ab 3d a8 e5 7b bd 54 26 12 bf
       -0.00785135 0.083879076 -0.061498314 -0.57089734
000150 0b f7 85 bd 6f 25 67 be 99 a5 53 3e 70 72 c9 be
       -0.0654126 -0.22572874 0.20668639 -0.3934512
000160 d3 7d 21 3e d7 a6 01 3d 07 04 57 be f0 78 25 bf
       0.15770654 0.03165325 -0.2099763 -0.6463766
000170 df e5 d2 bd 2a 9d 3e bd 97 87 85 3b a6 d8 30 be
       -0.10297751 -0.046536602 0.0040750015 -0.17270145
000180 0f 6d 86 3e 1f 96 fc 3d 3a 87 2f be 48 be 42 3e
       0.2625508 0.12333321 -0.17141429 0.19017899
000190 60 2f 58 bd a1 a1 18 3d f5 d6 14 bd f6 80 28 3d
       -0.052779555 0.037263516 -0.03633781 0.04113861
0001a0 bd 24 f5 3e 01 92 d4 3d e3 c7 41 bd b8 39 25 be
       0.47879592 0.103794105 -0.047309767 -0.16135299
0001b0 f7 bb a9 3d b8 db a6 3e 8f 69 e4 3d 01 9a 9a 3e
       0.082878046 0.32589507 0.11152946 0.3019562
0001c0 ce 52 a9 3d 07 04 84 be 8b e0 84 3e 6a d3 57 be
       0.08267747 -0.25784323 0.25952563 -0.21076742
0001d0 5d 37 24 3e 3c 22 0b bc 75 56 a0 be b0 8d 51 bc
       0.16036744 -0.008492049 -0.3131596 -0.012790129
0001e0 fe f0 7e 3d 62 ce 94 3e 44 3d 4a be a1 08 b5 bd
       0.062241547 0.29063708 -0.19749933 -0.088395365
0001f0 ce 13 84 be b4 ba ce 3a b3 70 60 be 4e 8e 0a be
       -0.2579636 0.0015772195 -0.21917991 -0.13530847
000200 b4 9a de bd 88 5c 3a 3e 44 2e c5 bd c0 44 ed 3e
       -0.10869351 0.1819936 -0.09627965 0.46341515
000210 ca 12 4e be ed a5 47 be 7d 7e a8 bd 9d 1d 39 be
       -0.20124355 -0.1949689 -0.08227251 -0.18077703
000220 36 a4 e8 3c e6 a0 fe 3d f0 b9 04 bd 7c e2 44 3e
       0.028398614 0.12433033 -0.032403886 0.19227022
000230 bf b7 cf 3e bd 48 74 be 57 65 18 3e 25 b3 24 be
       0.40569875 -0.23855872 0.14882408 -0.16083963
000240 3b 31 39 3e a2 92 a4 be cf 17 8b 3d 58 4a 71 3e
       0.18085186 -0.32143122 0.067916505 0.23563516
000250 c6 b2 be 3e 6b 92 b1 bd 8d d0 4f be 08 54 05 3e
       0.37245768 -0.08670505 -0.202944 0.13020337
000260 67 fc ed 3e f3 22 30 3c c0 ee d9 be e3 0c 44 3e
       0.4648163 0.01075052 -0.42564964 0.19145541
000270 b8 be 62 3e 28 47 4d bd 77 5a af 3b e2 a0 46 be
       0.22143066 -0.050116688 0.0053513604 -0.1939731
000280 70 0d a0 3d cc c4 40 be a5 b0 cb be ac d8 e7 be
       0.07815063 -0.18825072 -0.39783207 -0.45282495
000290 cc 10 1e 3e d7 5f 9a 3e 58 3c 52 3e e2 a1 b8 be
       0.15436095 0.30151245 0.20530832 -0.36061007
0002a0 1f e4 6f 3d c0 46 33 be 97 30 2f 3e 72 8c 9b 3e
       0.058567163 -0.17507458 0.1710838 0.3038059
0002b0 7a 98 aa be a3 44 55 bc 88 3b 90 bb 58 ce 05 bf
       -0.33319455 -0.013016853 -0.004401628 -0.5226798
0002c0 ae dc d9 bc a8 e3 fa bd 24 4c 1d 3e 2c 7e c7 3e
       -0.026594486 -0.12250453 0.15361077 0.3896345
0002d0 99 ee c2 bb 78 57 fb bd 61 e4 1c 3e 97 6d f9 be
       -0.005948853 -0.12272543 0.15321495 -0.48716423
0002e0 b1 be 2d be 31 f8 8d bd 9b 71 30 be a9 64 0a bf
       -0.16967274 -0.069321044 -0.17230837 -0.54059845
0002f0 4a 6b b0 bd bd 4d 96 3d ec 71 9a 3c 2e 68 2a bf
       -0.08614214 0.07339046 0.01885315 -0.66565216
000300 db f9 a5 3e 1c 02 e5 bd 16 e0 da 3c 2b 1e a2 3e
       0.32417187 -0.11182043 0.02671818 0.3166364
000310 55 0a d0 bd 0e 42 33 be 4f 0d 08 3e 02 47 fb 3e
       -0.10158221 -0.17505667 0.13286327 0.49077612
000320 15 66 15 bc 7f e6 27 be 5e ba 18 3c 7b 7f 83 be
       -0.0091185765 -0.16396521 0.009321777 -0.25683197
000330 00 56 49 be 4e 38 d6 3d 5b 2d 39 3d 70 4e 9f 3e
       -0.19661713 0.10459958 0.04520927 0.3111453
000340 e7 3f e7 be 79 ea fe 3d 44 ec 86 bc c7 73 d0 be
       -0.4516594 0.12447066 -0.016470082 -0.4071333
000350 26 0e 81 3d c1 5c e3 bd 68 43 22 3e a3 53 9a be
       0.06301527 -0.11101676 0.15846026 -0.30141935
000360 c3 a8 13 3e 23 86 42 3e 2a b7 f5 bd c4 67 c6 be
       0.14419846 0.18996482 -0.119978264 -0.38751042
000370 da 1c a7 3d 34 9d aa bc 74 f5 cc bd 92 2a ff 3e
       0.081598 -0.020826913 -0.10007754 0.49837166
000380 5e db be 3e 41 be e9 bd a0 de 45 3e 78 62 2a 3f
       0.3727674 -0.11413241 0.19323206 0.665565
000390 56 a9 19 be 03 29 02 3d 9a 9a 0a be bb 6b 16 bf
       -0.15006003 0.031777393 -0.13535538 -0.58758134
0003a0 0a 36 9b 3e 6a 4e 71 3d bc cb 93 bd 09 18 22 3f
       0.30314666 0.058912672 -0.072165936 0.63317925
0003b0 a5 ed 91 3d 1d a5 1b be b7 ba 3e 3e 13 6d 14 bf
       0.07125405 -0.15199704 0.18625914 -0.57978934
0003c0 4c 7e 0f 3e 87 6a 96 bd 03 c2 05 3b 21 38 61 3e
       0.14013022 -0.07344537 0.002040983 0.21994068
0003d0 e3 39 bd bd cc c2 96 3d 77 63 2a 3c a5 d5 ea be
       -0.09239557 0.07361373 0.010399691 -0.45866123
0003e0 fd 23 55 be a9 c4 7e bc a1 b8 33 3e 98 ab fc 3e
       -0.2081451 -0.015549817 0.17550899 0.49349666
0003f0 eb 02 3e 3d 58 32 36 bc f6 0d 4d bc 3a f8 ee be
       0.0463895 -0.011120401 -0.012515536 -0.46673757

lstm.weight_hh_l0 f4 [84, 21]
000000 2f 68 9f be 1f ce 43 3f d0 bc ac bd b4 9c 95 3e
       -0.31134173 0.7648639 -0.084344506 0.29221117
000010 de 36 9f 3e a1 8c 89 3e 35 9a 91 be f0 2b a7 be
       0.31096548 0.26865104 -0.28437963 -0.3265071
000020 d2 20 24 be 12 52 af be 49 df 60 3c fc 5d 0e 3f
       -0.16028145 -0.34242302 0.01372511 0.5561216
000030 ad 68 23 bd 9e 18 d0 bc 83 e7 84 be 07 82 77 3e
       -0.03989475 -0.025402363 -0.2595788 0.24170695
000040 7e c1 21 be b3 05 b9 3e 64 e5 a4 bc 1d d4 b4 3e
       -0.15796468 0.3613716 -0.020128913 0.3531808
000050 00 1a 29 bc 49 88 0a bf fe 41 e5 3d f3 0a 21 bf
       -0.01032114 -0.54114205 0.11194228 -0.6290733
000060 11 21 90 3e 49 5b 22 3f 8f f4 b2 3e 64 3b 0c bf
       0.28150228 0.6342054 0.34952208 -0.5477812
000070 65 b7 10 bf 65 ae c9 3e ca b3 d1 be e0 97 02 3f
       -0.5652984 0.39390865 -0.4095748 0.5101299
000080 02 0c 70 3e d8 80 af 3e 40 a8 1f bf 48 2e 75 be
       0.2344208 0.34277987 -0.62366104 -0.23943436
000090 53 b4 f9 3e 92 f9 0a bf 09 2c c5 3e 01 ef d5 be
       0.4877039 -0.54287064 0.3851016 -0.41783908
0000a0 96 82 b2 3e a1 b3 24 bf a8 c8 b7 bd 1e c6 07 3e
       0.34865254 -0.6433659 -0.08973819 0.1325917
0000b0 72 5f bf bd 1d 79 b6 3e 80 01 7d 3e 46 77 cc 3e
       -0.093443766 0.35639277 0.24707603 0.39934748
0000c0 2c 0e 16 3d ef 6d b6 3d 86 b3 44 3e 61 0e 34 be
       0.03663461 0.08907687 0.19209108 -0.1758361
0000d0 56 e1 87 3e ad 95 d4 3e b1 ce 5b 3e 51 75 88 be
       0.26539105 0.41520444 0.21465565 -0.26652005
0000e0 63 4b 5c be 2d c2 6b 3e 01 de cf be 81 55 0e 3f
       -0.21513133 0.23023291 -0.40599063 0.5559922
0000f0 e0 d0 b0 bd c9 24 8b 3e d0 13 d2 3d e0 32 4f 3e
       -0.0863359 0.27176502 0.10257685 0.20234251
000100 48 3a 1a bf c1 3c c4 3b af c7 db be 90 ff fd bc
       -0.6024518 0.0059886877 -0.42925784 -0.03100565
000110 d5 30 05 be d5 4c 51 3c 97 1a 80 3e 34 e2 31 3e
       -0.13006909 0.012774666 0.25020286 0.17371446
000120 af 6d 20 3b c2 e1 93 be 67 f1 13 bf e0 9b cf 3d
       0.002447944 -0.28883177 -0.57790226 0.10137153
000130 58 4e 4b 3e 31 59 b6 3d 1a be 83 be d5 24 ea 3e
       0.19854105 0.08903731 -0.25730973 0.45731226
000140 60 7e bd be 4f 9b a7 3e a4 90 c0 be 6b 00 8c 3c
       -0.3701048 0.3273568 -0.37610352 0.017090043
000150 f0 54 83 bd 42 40 c1 be ff b8 4c be 3c 0d 8f 3c
       -0.06412685 -0.37744337 -0.19992445 0.017462365
000160 4e 32 d6 3b dc af 3b bc 40 cb 31 3c 9c f3 57 3e
       0.0065367585 -0.011455502 0.010851681 0.21089023
000170 42 23 24 3e 85 c3 a3 3e 57 b8 af bc 21 58 e0 be
       0.16029075 0.31985107 -0.021450205 -0.43817237
000180 11 7d 25 be b0 df 2f bd 13 55 fc bd ef 44 18 be
       -0.1616099 -0.042937934 -0.12320914 -0.14870046
000190 7f 17 32 be 50 79 14 3e a7 c9 53 3e 9f ee 10 bf
       -0.17391776 0.14499402 0.20682393 -0.56614107
0001a0 1b c7 84 bd 48 2b 27 3e 4e ed 51 bf 7f 85 1b 3e
       -0.06483289 0.16325104 -0.82002723 0.15187643
0001b0 f0 f7 70 bd 91 c5 dc bd 25 79 45 be 83 63 4c 3e
       -0.0588302 -0.1077987 -0.19284494 0.19959836
0001c0 7d e4 fb 3e 48 64 07 3e 31 65 da 3e d1 0b 0d 3d
       0.4919776 0.13221848 0.42655328 0.034435097
0001d0 a2 ae fa be aa 2d a7 bc ca 9d db 3d b3 ef 80 3e
       -0.4896136 -0.020407517 0.10723455 0.25182876
0001e0 29 32 e4 bd dd f2 e4 3c 3a f5 da bd 83 79 ef 3d
       -0.1114238 0.027947837 -0.106913045 0.116930984
0001f0 82 b1 2b bf 88 49 88 3d 8c a2 af 3e 03 ba ea bd
       -0.6706773 0.0665465 0.343037 -0.1146126
000200 2b 4c 82 3e 6b 74 2a bd 87 fd 2b be 07 f8 c7 bc
       0.25448737 -0.04161493 -0.16795932 -0.02441026
000210 f6 d7 4b bd 10 93 aa 3e 12 56 40 be f8 1f 94 3e
       -0.049766503 0.33315325 -0.18782833 0.2893064
000220 96 2d b0 3d c7 ee 86 bd d3 0e 46 3e f9 63 4b be
       0.08602445 -0.06588512 0.19341592 -0.19862355
000230 5e 26 6d 3e 50 e6 40 be 9f b6 44 bd 91 8c dd bd
       0.23159167 -0.18837857 -0.048025724 -0.108178265
000240 3b 05 0b be aa e5 eb ba 51 91 0b 3f e9 f2 c0 bd
       -0.13576214 -0.0017997522 0.5451861 -0.094213314
000250 23 d6 05 3f d0 1d 71 be ff 2e 09 3f 3d 08 8d 3e
       0.5227987 -0.23546529 0.53587335 0.27545348
000260 11 b9 c0 3d e3 80 dd bd 0b 35 87 be 31 7d 1a 3e
       0.094102986 -0.10815599 -0.26407656 0.15086819
000270 36 2e 0a bf 6c d2 bd 3e 4a ed 1a 3f 59 b9 45 3e
       -0.5397676 0.37074602 0.60518324 0.19308986
000280 6e ad 9b bd f1 b4 ae be ff 92 c0 3d 06 a2 58 be
       -0.076014385 -0.34122422 0.09403037 -0.21155557
000290 55 10 f5 3e ab ee 45 be be 10 d3 3e 0b d3 86 3c
       0.47864023 -0.19329326 0.4122371 0.016458055
0002a0 ba 46 73 3e bf 01 23 bf 1e eb e3 3b 0e b9 06 be
       0.23757449 -0.6367454 0.0069555184 -0.1315653
0002b0 58 23 70 bd bf 22 80 3e 57 fb a3 be c8 83 67 3d
       -0.058627456 0.2502651 -0.32027695 0.05652216
0002c0 82 ea c3 3e 90 1e 2d bd a1 bc ad 3d a2 af 25 be
       0.38264853 -0.042265475 0.08483244 -0.1618028
0002d0 3d 00 58 3d 2f 55 76 bd 6e 17 9d 3c 10 f9 a5 3d
       0.052734602 -0.06013983 0.019176211 0.081041455
0002e0 6a 79 a2 bd 34 38 0d 3a 7c 5f 0f be ed 5d fb be
       -0.07933314 0.0005387098 -0.14001268 -0.49095097
0002f0 e1 82 9c 3d c7 eb f6 be a9 b3 57 3f 98 f8 e7 bd
       0.07642151 -0.4822676 0.84258515 -0.11326712
000300 4a 1a 29 3e 6c 8c 1b 3e 8c 72 32 bc c3 0e 71 be
       0.16513935 0.15190285 -0.010891568 -0.23540787
000310 d8 6e 18 bf 1d 72 70 be be 65 e5 be ba aa 22 3e
       -0.59544134 -0.23481031 -0.44804186 0.1588544
000320 47 80 1b 3f d4 78 11 3e 5f 92 7a be 5e 13 2b be
       0.6074261 0.14206249 -0.24469899 -0.16706607
000330 5a 69 d0 3e 1e c2 2b bc be f0 dc 3d 50 d5 91 be
       0.40705377 -0.010483293 0.107881054 -0.28483057
000340 57 89 f7 3e e5 b3 d3 be 67 ed 9d bd 94 ed 80 3e
       0.4834697 -0.41348186 -0.077112965 0.25181258
000350 e7 92 96 be a5 f1 43 bd 9d 14 1d 3e b6 c2 d7 3c
       -0.29408953 -0.047837872 0.15339895 0.026337963
000360 fe f3 54 be e5 41 85 3d f3 24 61 bc fb ba 9e be
       -0.207962 0.06506709 -0.01374172 -0.3100203
000370 f8 05 25 3d cb 00 a4 3c 2e 8c 95 3e 9e 1c f7 bc
       0.040288895 0.02001991 0.2920851 -0.030165013
000380 e7 22 33 3d d1 ab 38 3b 0f 6b 3b be 12 92 6c 3e
       0.043734457 0.0028178582 -0.18302558 0.23102596
000390 5a ed 81 be 27 92 26 3e 26 32 42 be fd 2f 8b 3d
       -0.25376397 0.1626669 -0.18964443 0.067962624
0003a0 ab cf 6a bc 3e c9 65 be 6e 77 6a 3e 65 0a dd bd
       -0.014331738 -0.22440049 0.22897121 -0.10792998
0003b0 0f 3c 05 be 84 19 13 be da bb 40 be d8 f8 5a 3d
       -0.13011192 -0.14365202 -0.1882166 0.053459972
0003c0 5d fd 8d 3d 89 4c 0d 3c 7a 65 30 bd 1b 23 6d bd
       0.06933091 0.008624204 -0.043065526 -0.057894807
0003d0 50 28 11 3e e0 6b 25 3d 14 13 c8 bb 3b 50 36 be
       0.14175534 0.04038608 -0.00610579 -0.17804043
0003e0 46 fb 91 3d 5e 6a cf bd 27 7e 89 3e 4d 5b 97 3d
       0.07128005 -0.1012771 0.2685406 0.07390461
0003f0 e0 ab cc be 07 d6 f1 3e de 36 d0 be 72 4e 99 3e
       -0.3997488 0.47233602 -0.4066686 0.29942662

lstm.bias_ih_l0 f4 [84]
000000 1d 3e b6 bd e6 f7 0d 3f 0c 27 43 bc 1f 6c 61 3d
       -0.08898566 0.5545639 -0.011911165 0.055034753
000010 2d 59 a9 3e 06 c2 cb 3e 6c af b5 bd 74 c4 de 3e
       0.33075848 0.39796466 -0.0887135 0.43509257
000020 62 ff d8 bd 72 c2 aa 3c c2 e0 d9 3d 6b fc 5e 3e
       -0.105955854 0.020844672 0.10638572 0.21775977
000030 10 96 47 3d 7b 9c 5e 3c 22 a4 8c 3e 98 9c 95 3d
       0.048727095 0.013587113 0.27468973 0.073052585
000040 72 c0 66 3e 54 69 14 3e 59 cf 57 be e0 38 8d 3e
       0.2253435 0.14493304 -0.2107519 0.27582455
000050 aa 79 2e be 08 bd 59 bc c4 82 55 3e 62 ab 62 be
       -0.17038599 -0.0132896975 0.20850664 -0.2213569
000060 af bb c1 3e c4 c0 bf 3d f1 88 09 3f 36 38 0f 3e
       0.37838504 0.09362939 0.5372458 0.13986287
000070 11 8c 8a 3e 68 d3 f2 3d bc ea 95 be ac c0 1e bd
       0.27059987 0.11856729 -0.2928065 -0.038757965
000080 dc a2 72 bd 54 a7 da 3c fb 01 6c 3e 15 1b f7 3d
       -0.059237346 0.026691116 0.2304763 0.12065712
000090 49 c6 c5 3e 55 52 2c 3e 93 95 e9 3d 8c e8 ad bd
       0.38627842 0.16828282 0.11405482 -0.084916204
0000a0 e4 2a 57 3e 91 7e 94 be 25 5e dc 3d 8d 8b 9d be
       0.21012455 -0.29002813 0.10760144 -0.3077053
0000b0 01 a2 53 3e 15 37 0b be 7a 08 44 be 9f f5 e2 bc
       0.20667268 -0.13595231 -0.19143859 -0.027705012
0000c0 ac 86 da 3b 1a de 9c 3e db 40 0e 3e f5 68 f3 3d
       0.006668886 0.306382 0.13891928 0.11885253
0000d0 f8 62 f5 bd 76 95 a5 be 9b e1 65 3d c3 f9 3e 3e
       -0.119817674 -0.32340592 0.056123357 0.18649964
0000e0 10 4a 8b bd 72 64 c5 bd cb 76 ad bd a4 99 06 be
       -0.06801236 -0.09638299 -0.084699236 -0.13144547
0000f0 02 be 92 3d bd 32 cd be 16 ea a6 3d d2 14 78 be
       0.07165147 -0.40077773 0.08150117 -0.24226692
000100 88 82 f6 3e d8 4a 0e 3e cf 61 92 3e d1 26 e4 3d
       0.48146462 0.13895738 0.28590247 0.11140216
000110 05 54 8b 3e 60 e6 03 be 99 03 70 3e 93 5e 3f 3e
       0.2721254 -0.1288085 0.23438872 0.18688421
000120 2f 6f 82 3b 59 cf ab 3d 55 a8 50 3e 07 2d b6 bd
       0.0039805393 0.08389158 0.20376714 -0.08895307
000130 9c 6e d4 3d db ce a4 3e c6 58 02 3e 05 a8 3a 3e
       0.103726596 0.32189068 0.12729177 0.18228157
000140 db d3 59 3e f5 94 38 be a6 e2 c6 3e 94 e2 5b be
       0.21272223 -0.18025573 0.38844794 -0.21473151

lstm.bias_hh_l0 f4 [84]
000000 c1 38 93 be 08 03 c1 3e f3 7e 20 bd 12 c8 05 3e
       -0.28754237 0.37697625 -0.03918357 0.13064602
000010 d8 af bd 3e 68 d7 a7 3e a1 ee 51 3e 3b 93 e8 3d
       0.3704822 0.3278153 0.20501186 0.11356207
000020 48 28 89 bb 9a 71 a4 be 19 c4 ac 3d 9f fb 20 3e
       -0.00418571 -0.3211792 0.0843584 0.15720986
000030 20 4b 18 be 4e 7e 89 bd 17 2b ca 3e 08 ca 7d 3e
       -0.14872408 -0.06713544 0.39486 0.247841
000040 ce a0 ab 3e e7 c1 5e 3e f6 a4 62 be ea b7 fd 3c
       0.33521122 0.21753655 -0.2213324 0.030971486
000050 c4 ae ac bd a0 3a 30 be 8b 56 b8 3e 33 e2 d2 3c
       -0.084317714 -0.17209864 0.36003527 0.025742626
000060 52 3a 93 3e b0 dd 88 bc 57 a1 b4 3e b5 3e 21 3e
       0.28755432 -0.016707271 0.35279343 0.15746577
000070 6d e1 19 3e 3d 42 57 3e 88 d8 8a be 51 57 90 be
       0.150274 0.21021362 -0.27118325 -0.28191617
000080 e1 69 06 be b7 82 c4 bd c1 bb a0 3c 8d 64 b5 3e
       -0.13126327 -0.095952444 0.019620778 0.35428277
000090 68 1a 58 3e 57 26 a8 3e 29 3c 9c 3e 1e f3 9f bc
       0.21103823 0.3284175 0.3051465 -0.019525107
0000a0 a8 d4 88 bd f9 aa b7 be 55 1d 23 3e d4 a2 37 be
       -0.06681186 -0.3587263 0.15929158 -0.17933208
0000b0 2a 85 13 bd 9a d7 83 be 2b 5c 58 bc 9a df 9c be
       -0.036015667 -0.25750428 -0.013205568 -0.30639344
0000c0 92 63 0c 3e 14 19 69 3e ac 2b 4b 3d 14 1f 6f 3e
       0.13709858 0.22763473 0.049602196 0.23351699
0000d0 fd c9 36 bc 89 fd 71 be d9 5f 8e be 5d 75 d4 bc
       -0.011156556 -0.23631872 -0.278075 -0.02593487
0000e0 85 d0 01 3e f9 d7 51 be c2 03 8e 3e ec 7d 12 be
       0.126772 -0.20492543 0.27737242 -0.14305848
0000f0 83 78 6f 3e a7 d1 a5 bd 67 d2 a9 3d 09 6e e7 bd
       0.23385815 -0.08096629 0.08292084 -0.113002844
000100 06 13 eb 3e 3a 42 1d be d8 24 33 3d b3 c9 92 3e
       0.4591295 -0.15357295 0.04373631 0.2866951
000110 7c 38 97 3e d1 01 90 bd 1a cc 3b 3e 9c 69 df bc
       0.29535282 -0.070315965 0.18339577 -0.027272038
000120 53 a5 8a be 77 d9 b0 3d af 07 b0 3d 70 a2 a1 bd
       -0.27079257 0.08635228 0.085952155 -0.078923106
000130 5b e5 9f 3e c3 a3 7c 3c e6 9c ee bc 43 a0 92 3e
       0.31229672 0.015419903 -0.02912755 0.28637895
000140 d8 10 0a 3e d1 ff 96 be 54 31 ea 3c e3 f6 39 be
       0.13482988 -0.29492047 0.028587975 -0.18160586

lstm.weight_ih_l1 f4 [84, 21]
000000 9f 85 2f bd 4c 95 cf be 6e f0 80 bb 2a 3d cf 3c
       -0.04285204 -0.40543592 -0.0039349115 0.02529772
000010 c2 60 c0 3e 6e 5c e5 3e ab 5a 20 be 90 ee 71 3e
       0.3757382 0.4479708 -0.15659587 0.2362616
000020 9b 59 a8 3e 69 c7 c3 3e ff db 1a be 05 9b 90 3e
       0.32880864 0.38238075 -0.15122984 0.2824327
000030 b0 c0 4c be 2a b7 a3 be 25 32 1e be 98 2e af 3e
       -0.1999538 -0.3197568 -0.15448816 0.34215236
000040 16 32 43 3c 1b 36 e8 3d 6d 3f 9b 3c 9b 5f aa be
       0.011913797 0.11338445 0.018951142 -0.33276066
000050 6c c4 2f 3e db d9 23 bc 73 46 12 be 87 a8 19 3e
       0.17164773 -0.010000671 -0.14284687 0.15005694
000060 f3 ff fe 3d c5 c4 08 be 3b 7a 2d bd 45 91 f2 bd
       0.12451162 -0.13356312 -0.042352896 -0.11844114
000070 3f 49 92 bd 1f 3c ca 3d da 67 1b 3e 26 5d b6 bd
       -0.07142877 0.098747484 0.15176335 -0.089044854
000080 72 63 c0 3d cb 77 c3 be 9d ff 4e 3e c5 e3 67 be
       0.09393968 -0.38177332 0.20214696 -0.22645481
000090 a7 4b 0a be 08 b9 f9 bd 90 c3 e5 bd cd 2b a5 bd
       -0.13505422 -0.12193495 -0.11218941 -0.08064995
0000a0 66 57 35 be 61 74 70 3e bc 0d c0 3d 8f 60 25 3e
       -0.17709121 0.23481895 0.093776196 0.16150115
0000b0 65 e3 5a 3e 74 55 51 3d 12 25 71 be bb f9 71 3e
       0.21375807 0.051106885 -0.23549297 0.23630421
0000c0 8c 1c 29 bd ad 8f 89 bd 7c 51 b0 bd d3 29 30 3e
       -0.04128699 -0.06716857 -0.08609292 0.17203455
0000d0 2c d6 c4 3d fe 70 8b bd c5 a9 65 be 3d 83 50 3e
       0.096111625 -0.06808661 -0.22428043 0.20362563
0000e0 ca 5f 33 be f7 4d 84 3d 7a f9 78 3c 36 d5 c4 3d
       -0.1751701 0.06460183 0.015196199 0.09610979
0000f0 8b 2a 8f be 7c 12 8d bd 26 69 b4 3e 84 39 c0 be
       -0.27962145 -0.06888291 0.35236472 -0.3754388
000100 e9 46 db 3e 62 52 90 be 96 24 0a 3f 54 b0 02 3f
       0.42827538 -0.28187853 0.53962076 0.51050305
000110 dd c9 26 3e 65 89 36 be 68 f6 c6 be 3c 04 8f 3e
       0.16287942 -0.1782585 -0.38859868 0.27932918
000120 b6 16 04 bf e6 d1 4d 3e ca 49 c3 3e 25 f1 f3 3d
       -0.51597154 0.20099601 0.38142234 0.11911229
000130 5b 69 77 bb 8a 28 60 be b6 ad 9b 3e ac c0 18 bf
       -0.0037752006 -0.21890464 0.30405968 -0.59668994
000140 6b 60 75 3e 8b e6 f3 be 34 ee 90 3e 52 cf c9 be
       0.23962562 -0.47636828 0.28306735 -0.39415985
000150 d5 e5 d4 3e d7 92 2d bf eb f3 09 be ed 82 5d 3e
       0.41581598 -0.67802185 -0.13471954 0.21631975
000160 a8 d5 14 3e 55 af 03 be 48 29 08 be c3 1f 09 3f
       0.14534628 -0.12859853 -0.13296998 0.5356409
000170 57 4b 0e bd ea 79 b7 3e dc 53 ec bd 6a 91 08 3d
       -0.03473982 0.358352 -0.115394324 0.033341803
000180 68 d1 b4 be 39 c1 21 3b a4 b2 5d bd 41 be fc 3d
       -0.35316014 0.002468182 -0.054125443 0.123409756
000190 45 c4 7d bb df 3d 6d 3e c4 35 4b 3e d0 4c c9 be
       -0.0038721722 0.23168133 0.19844729 -0.39316416
0001a0 f7 0f f1 3e 82 ac 94 3e bf ec 93 be 33 50 53 3e
       0.47082493 0.29037863 -0.2889156 0.20636062
0001b0 be 21 27 be 6e 23 49 3e 4e d2 c3 3d 50 7f 5b be
       -0.16321465 0.19642422 0.09561597 -0.21435285
0001c0 1b 5b ae 3e 10 19 4b 3e 92 02 9b 3e d7 5d 3c be
       0.34053883 0.1983378 0.30275398 -0.18395172
0001d0 23 3f 36 be 68 bb 0f be 86 88 32 be d3 f5 4c be
       -0.17797522 -0.14036334 -0.17434892 -0.2001565
0001e0 54 54 95 bd 77 01 6b bd 03 5e 5c bd 79 86 3d be
       -0.07291475 -0.057374444 -0.053800594 -0.18508328
0001f0 00 eb 00 bf 53 39 a7 3e 26 3f eb be 77 fe 02 bd
       -0.5035858 0.32660922 -0.45946616 -0.031980958
000200 75 e4 96 be 67 d9 d2 3e 01 40 98 3e ff f2 83 3e
       -0.29471174 0.4118149 0.2973633 0.2577133
000210 00 8b 09 be 1b 55 94 3d b2 25 bb 3e f7 d1 76 be
       -0.1343193 0.07242795 0.36552197 -0.24103533
000220 e3 2f db 3d 88 5b 20 3d f8 35 a2 3d c5 ea e4 be
       0.10702493 0.03914979 0.0792045 -0.44710365
000230 a7 e5 99 be f6 81 a6 3e c8 a3 e8 be 8e 15 9b 3e
       -0.30058023 0.32521027 -0.45437455 0.30289882
000240 f1 05 fd be ee 0d a8 be a8 a5 ef bd 35 be 00 bf
       -0.49418595 -0.32823128 -0.11701518 -0.5029023
000250 89 2f 70 3e 01 1b ec be dc bf 86 3e c7 71 16 3e
       0.23455633 -0.46114352 0.26318252 0.1469184
000260 9e ed b8 3e 2f 76 a4 be 62 91 9b be 07 29 b8 3e
       0.36118788 -0.32121417 -0.30384356 0.359688
000270 c1 28 1d bf 43 c1 cb 3e 50 5f b9 3d e3 0e c4 3e
       -0.6139031 0.39795884 0.090513825 0.38292608
000280 15 b3 ec be ae 07 44 be 74 11 c0 3e 7f fe 47 be
       -0.4623038 -0.19143555 0.37513316 -0.19530676
000290 16 0e 9b 3e 58 b2 97 be 00 50 c5 3d b6 df 23 be
       0.30284184 -0.29628253 0.096343994 -0.16003308
0002a0 0e c5 48 3e e8 ab 8c be c4 cd cc 3d 35 14 97 be
       0.1960642 -0.27474904 0.10000184 -0.29507604
0002b0 68 53 3b 3e bc 4e 54 bb 3c 4c d8 3d a7 32 fc 3d
       0.18293536 -0.0032395562 0.105614156 0.12314349
0002c0 64 ae 1b 3e f1 f1 63 3e 5e 97 5f be 0e 7f b2 bc
       0.15203243 0.22260262 -0.21835086 -0.0217891
0002d0 17 67 3e be b6 1a 65 3d 8e ff b9 3c fd 0a cd 3d
       -0.18594013 0.055933677 0.022704866 0.100118615
0002e0 69 e8 91 3e a0 c8 a2 bd 99 b0 2a 3e ce d5 bd be
       0.28497627 -0.079484224 0.16668929 -0.37077183
0002f0 b6 48 5a 3e 88 52 5e 3d 5b 54 01 bf 25 4e a7 bd
       0.213168 0.054277927 -0.5051934 -0.08169202
000300 d8 5e 52 be 2d 5c 39 be 6a 86 3a be 82 80 12 be
       -0.20543993 -0.18101569 -0.18215337 -0.14306834
000310 ce af 7d 3e d9 d3 cf 3d 49 f7 f9 3e 0a 68 8c bd
       0.24774095 0.101478286 0.48821476 -0.068557814
000320 88 71 58 3d 43 08 c5 be 44 e8 25 3b 4e b3 55 3e
       0.052842647 -0.38482866 0.0025315443 0.2086918
000330 12 93 04 3e 85 fb 53 3e 2c 1f b6 bd 31 8b 44 3e
       0.12946728 0.20701416 -0.08892664 0.19193722
000340 ae 10 17 bf 4a 82 b5 3e 05 7c 83 be a9 db 7f be
       -0.59009826 0.35450965 -0.25680557 -0.24986137
000350 e3 65 8b 3c 94 1e b0 3e fe 6d aa 3e da 79 b5 3e
       0.017016357 0.3439833 0.33287042 0.35444528
000360 a6 9e b0 be b7 b0 6a be 83 26 47 3e ae 92 c6 3d
       -0.3449604 -0.22918974 0.19448285 0.09695946
000370 1b c8 26 3d 22 c4 1f bd 02 e6 a2 bd e4 be bc bd
       0.04071818 -0.039005406 -0.07954027 -0.09216097
000380 b0 5d ab be 06 ad b7 3e 2e 29 cd be 00 99 a0 3d
       -0.33469915 0.35874194 -0.4007048 0.078416824
000390 d1 79 7f bd 69 05 8b be 34 ff 68 3c ea cb 28 be
       -0.062372033 -0.27152565 0.014221001 -0.16484037
0003a0 b0 26 6f 3d 64 f9 8b be 20 38 27 3e de 4c ea 3d
       0.058386505 -0.27338707 0.16330004 0.114404425
0003b0 aa cb aa 3e b6 27 6b be 2b d8 24 be 37 d1 2c 3e
       0.33358508 -0.22964367 -0.16098087 0.16876684
0003c0 22 fd d8 3d 9b 48 0b 3d 72 d1 63 3d 24 ff 91 be
       0.10595156 0.03400479 0.055619664 -0.2851497
0003d0 2b 8f be be d5 f6 4b be cf 63 09 3e cb 0f 59 be
       -0.37218603 -0.19918378 0.1341698 -0.21197431
0003e0 75 0c e8 3d 57 73 0c be 28 6e 53 be dc 1a 5d be
       0.11330501 -0.13715874 -0.2064749 -0.21592277
0003f0 68 cf c5 bd 54 a2 c9 be ac 93 c5 bc 6f 35 86 3d
       -0.096587 -0.3938166 -0.024118267 0.065531604

lstm.weight_hh_l1 f4 [84, 21]
000000 d4 90 60 3e 4c 1f 53 3c fe 8e 80 3e ba 70 f8 bd
       0.21930248 0.01288588 0.25109094 -0.12130876
000010 31 85 8b 3d fc 9d 0c 3e 55 09 7b be d3 50 b9 3d
       0.068125136 0.13732141 -0.24515279 0.09048619
000020 7d b9 f8 bd 8c eb e5 3d df 51 c2 3d eb 42 05 bc
       -0.12144754 0.112265676 0.09488272 -0.00813363
000030 d9 60 9e 3e 7a 4e a8 bc 9a f8 5a 3e f0 94 e4 be
       0.30933264 -0.020545233 0.21383896 -0.4464488
000040 f8 09 80 3d 14 6c 80 3d 42 49 ef 3d d7 ec 71 bc
       0.062519014 0.06270614 0.11683895 -0.01476594
000050 30 dd 05 bd 13 2d b8 3c b3 bf f5 bc 17 cc 93 3e
       -0.032681644 0.02248243 -0.029998636 0.28866646
000060 38 fb 36 3a 41 53 6c bd 0c c5 41 3d 68 14 89 3e
       0.00069801835 -0.057696585 0.04730706 0.2677338
000070 dc 8f 17 3e 66 e0 85 bc 62 ec 3a 3e f9 7b 46 3e
       0.14800972 -0.016342353 0.18254235 0.1938323
000080 6d 53 4c be 2f a2 f1 bc c3 85 f9 bd a4 b5 46 3e
       -0.199537 -0.02949628 -0.12183716 0.19405228
000090 34 ac e5 bd bd f7 44 3d 5e 3e 0e bd ac f8 8c 3c
       -0.11214486 0.048087824 -0.034727447 0.01720842
0000a0 1c fd 92 bd 1a 6f 6e 3e 29 ba e4 3d 27 15 d4 3d
       -0.07177183 0.2328457 0.1116832 0.10355597
0000b0 fb 0a a7 bd 3f ff 8d 3d fc 51 83 bd ae 7c 83 be
       -0.08156391 0.0693345 -0.06412122 -0.2568106
0000c0 2b 43 db 3d ea b8 3b 3d 4b 4d 1e 3e 80 ae 10 3d
       0.10706171 0.045830645 0.15459172 0.035322666
0000d0 ec cb 5d 3e 0f 10 90 bd 72 80 d7 bd 77 9b 9b be
       0.21659821 -0.07034313 -0.10522546 -0.30392048
0000e0 60 17 15 be 12 61 95 3d 77 d2 02 be 39 87 3c bd
       -0.14559698 0.07293905 -0.12775598 -0.046027396
0000f0 84 37 2f 3e 8a 30 d0 3d 90 a4 19 be 63 70 03 3e
       0.17111021 0.10165508 -0.15004182 0.12835841
000100 96 85 08 3e ca e4 d3 bd cc eb 5a 3b 06 ee 0c be
       0.13332209 -0.103463724 0.0033404706 -0.13762674
000110 25 d3 8b bd ef 3c aa bc e4 9c 10 3e 83 56 66 bd
       -0.06827382 -0.020781009 0.14122349 -0.056234848
000120 be 58 8a be ff 74 2f be aa e3 aa 3d f6 d2 76 3e
       -0.2702083 -0.17134474 0.08344205 0.24103913
000130 92 57 9e bd 39 33 9d 3e 6a f0 a8 be 98 d1 32 3e
       -0.077315465 0.30703142 -0.3299592 0.17462766
000140 b2 4c 90 3e 1a 40 c1 3c f1 c3 28 3e ae 05 19 bc
       0.28183514 0.023590136 0.16480996 -0.009339733
000150 16 e0 ce bc 50 7a 79 3e de a4 81 3d 2b 4a 91 3e
       -0.025253337 0.24363065 0.06330274 0.28376898
000160 ee 8d 08 bd 8b 40 33 3e a8 cb 99 3c 88 91 3e be
       -0.03333848 0.1750509 0.018773869 -0.18610203
000170 c6 98 3a 3d c2 54 b4 bd 4d b8 26 3e 52 1f d3 bd
       0.045555852 -0.08805229 0.16281243 -0.10308708
000180 7d a9 30 3e c7 1f f4 3d 68 27 88 3e e5 cd 65 bd
       0.17252155 0.119201235 0.26592565 -0.05610456
000190 e5 11 99 bb 82 61 22 bd 7a 3f 81 3b 42 72 af 3e
       -0.0046713226 -0.039643772 0.0039443346 0.3426686
0001a0 a9 82 69 bd 66 62 ae bb 60 ec 87 3d d2 3a a1 3c
       -0.057009373 -0.0053217886 0.06636882 0.019681368
0001b0 78 37 db 3e 8f e4 87 3d 83 d3 f8 3d c6 01 de bd
       0.42815757 0.06635391 0.12149718 -0.10840182
0001c0 9b 42 1c be d8 70 6e 3d 17 a4 26 3e 17 65 32 be
       -0.15259783 0.058213085 0.16273533 -0.17421375
0001d0 58 f8 7c 3e 24 6a a3 3e 1f 8d 80 be cc 79 b5 bd
       0.2470411 0.31916916 -0.25107667 -0.088611215
0001e0 ad dd ca bd 3e 5f bb 3c bb f4 0b 3e c4 68 65 bd
       -0.099055625 0.022872563 0.13667576 -0.056008115
0001f0 e1 49 6b 3e ed 38 9b be 11 aa 41 be 76 89 4b 3e
       0.22977401 -0.30316868 -0.18912531 0.19876656
000200 68 98 81 3e 6b 4c 29 3e 57 c7 e7 bc 4d 09 7c 3e
       0.2531159 0.16533057 -0.028293295 0.24612923
000210 14 c0 3e be e4 ee d8 3d a8 7f c8 bd e4 ca a1 bd
       -0.1862796 0.1059244 -0.097899735 -0.079000264
000220 4a bd 15 bd 07 a8 16 be 15 b4 44 3e ca 5e 43 be
       -0.036557473 -0.14712535 0.19209321 -0.19079128
000230 5c a2 f2 3e 59 72 43 be 16 a8 15 3e 20 ac 89 3e
       0.47389495 -0.19086589 0.14614901 0.26889133
000240 b9 67 92 be 74 24 94 3c 31 18 ec bd b3 7c a7 3d
       -0.2859476 0.018083788 -0.11528052 0.08178081
000250 37 18 51 3e 61 5b ab bd f0 66 51 be d3 f3 f0 bd
       0.20419393 -0.083670385 -0.20449424 -0.11765256
000260 79 42 83 3e 0d 16 7c 3c 36 12 85 3e 1a 2d b5 be
       0.25636652 0.015386117 0.25990456 -0.35385972
000270 8f d5 bc be 3a 53 ab 3d ed 19 68 3e 13 7f aa 3e
       -0.36881682 0.083654836 0.2266614 0.33300075
000280 4e 32 03 be b2 ca c1 3d c6 2c c2 be 6d ec 1d 3d
       -0.12812158 0.09462489 -0.37924784 0.03855555
000290 91 60 73 bd dd 84 94 bd 3d 62 04 3e a1 7d ab 3d
       -0.059418265 -0.07251904 0.129281 0.08373571
0002a0 46 4b 43 be fb 56 f4 bd c8 3b 03 3e 4e 3a 20 3e
       -0.19071683 -0.11930653 0.12815773 0.15647241
0002b0 d0 10 12 be 73 0c 9d 3e 79 b6 ee bd ae 6a 9f bd
       -0.14264226 0.3067356 -0.11655898 -0.077840194
0002c0 e8 63 c1 3d 30 03 43 3d eb 30 aa bd a6 cd 5a 3e
       0.09442884 0.04761046 -0.083101116 0.21367511
0002d0 9c b9 66 3e 40 34 27 3d c7 0e 0c be af 01 85 bc
       0.22531742 0.040821314 -0.13677512 -0.016236154
0002e0 c7 9c b7 bc 53 04 87 3e 75 91 0a be d4 1a 7c 3e
       -0.022413624 0.26370487 -0.1353205 0.24619609
0002f0 ea ea 84 bd 39 7a 11 be e1 f2 4c 3e 33 3e 11 be
       -0.06490119 -0.1420678 0.20014526 -0.14183883
000300 45 9a bf bc a8 0e 89 3b cd ff 83 3e f7 6b 3c be
       -0.023388991 0.0041826554 0.25781098 -0.1840056
000310 be 0c 40 3d 73 87 e5 bd f7 9f e8 bc 12 45 34 be
       0.046887152 -0.112074755 -0.02839659 -0.17604473
000320 6b 06 97 3d 5a 40 3d bb 20 05 01 be fb 4e a9 bd
       0.07374271 -0.0028877468 -0.12599611 -0.082670175
000330 c0 af 4a bc 12 cd 63 bd 91 f4 ca 3d af 79 82 3d
       -0.012371004 -0.055615492 0.099099286 0.063708656
000340 7e 1f b9 3e 38 d6 2a bd 41 f3 76 be 5b e3 bc 3e
       0.3615684 -0.0417082 -0.24116232 0.36892208
000350 fe 81 99 3e a0 81 3b 3e e1 e5 73 be 9b ad 9a 3d
       0.2998199 0.18311167 -0.2381816 0.07552644
000360 2a 7f e9 bc bb 5b 3f bd 1d 3d b4 be 73 33 00 be
       -0.02850302 -0.04671834 -0.35202876 -0.12519626
000370 dc 27 ca bd ef 41 ca 3d 5a 43 0f 3e 0f de 7b be
       -0.09870884 0.09875857 0.13990536 -0.24596427
000380 f7 79 31 bd fb 2b bf be dc 19 e9 bc 5b cb 42 3d
       -0.043329205 -0.37338242 -0.028454714 0.047557216
000390 4e 73 93 be e7 94 6f 3e 2c 38 26 be 91 0a 47 be
       -0.28798908 0.23396645 -0.16232365 -0.19437625
0003a0 8e 5c 79 3d 15 1d 7f 3e 0a 26 54 3e ec aa 20 be
       0.060879283 0.24913438 0.20717636 -0.15690202
0003b0 c0 4e c8 3e d3 56 71 be 5c b3 e5 3c d9 f7 cc bd
       0.3912258 -0.23568277 0.028039627 -0.10008211
0003c0 85 b6 9c bd 70 48 57 bb b8 71 a3 3d d5 d6 0e 3e
       -0.07652 -0.0032849573 0.079806745 0.1394914
0003d0 a4 3f ba bc 62 fa 99 3e a1 42 a6 be 58 09 f7 3d
       -0.022735424 0.3007384 -0.3247271 0.12062329
0003e0 c5 da 0d 3e 94 6e 78 be e6 40 1c 3e 22 93 79 be
       0.13852985 -0.24260932 0.15259132 -0.24372533
0003f0 cd 9c 1f be c5 0e 53 3e 92 dd 7f 3e 8e ba 9f bd
       -0.15587159 0.20611103 0.24986866 -0.07799254

lstm.bias_ih_l1 f4 [84]
000000 ed 8e c5 bc 78 7a ae be db 21 2c be e4 a3 64 be
       -0.024116004 -0.3407781 -0.1680979 -0.22328144
000010 fc 37 d8 bd 2f 9c 20 3e 0a 57 de bd 77 16 8d 3c
       -0.10557553 0.1568458 -0.10856445 0.017222626
000020 22 58 1c be 25 90 3d 3e 3a 9c 18 bd 7b 72 33 bc
       -0.15267995 0.18512018 -0.037258364 -0.010952587
000030 bb 8e 4f be a8 63 ad bd 1c 67 2a be 16 e8 2f be
       -0.20269291 -0.084662735 -0.16640896 -0.17178378
000040 0b bf 65 be e0 bd 95 be 7a 8a 8c be 86 4b 4b be
       -0.22436158 -0.29246426 -0.274494 -0.19853029
000050 c3 83 c4 3c 94 60 2d 3d 1a a3 2f be 24 92 a9 bd
       0.02398861 0.042328432 -0.17152062 -0.08279827
000060 fa 27 42 bd 93 84 da 3d dd d7 6a be f5 83 16 3c
       -0.047401406 0.10669818 -0.22933908 0.009186734
000070 f1 4a c8 3d 82 4a 3b 3e cc 71 4e 3e 0a fc 66 be
       0.09779919 0.18290141 0.20160598 -0.22557083
000080 31 23 70 be 7c 11 74 bc 83 ef d0 bd 53 ce a0 be
       -0.23450924 -0.014896747 -0.10201933 -0.31407413
000090 be c7 84 3e 24 8e 79 be d4 b0 70 be e0 63 43 be
       0.2593364 -0.24370629 -0.23504955 -0.19081068
0000a0 6e 73 0c 3e f7 41 03 bc 0f 9e 97 3d 39 a3 24 bd
       0.13715908 -0.008011333 0.07403194 -0.040194724
0000b0 87 d0 ea bc 39 0e c6 bd d8 fd 5f 3b 19 7a 32 3d
       -0.028663887 -0.096706815 0.0034178402 0.043573473
0000c0 4f c9 72 3e 12 40 00 bd 44 ae 00 be 6d 59 d0 3d
       0.23709606 -0.031311102 -0.12566477 0.101733066
0000d0 b5 e2 8e bd 0e 0e 65 3c f0 08 39 3c 6d 8f 6d bd
       -0.06976835 0.013980402 0.011293635 -0.05799811
0000e0 a1 ec 0e 3e 6e 86 c1 3d 76 61 73 be 2e b4 ba 3d
       0.13957454 0.094494686 -0.23767647 0.09116398
0000f0 85 a5 79 bd b4 c0 27 bd ee 12 09 3e 00 b3 9d be
       -0.060948867 -0.04095526 0.13386127 -0.3080063
000100 ac 97 85 be 2f f5 ca be b0 fc 1f be 74 5d 1c 3d
       -0.2609228 -0.39640185 -0.15623736 0.03817506
000110 b8 a9 f6 3c 38 77 6f be df 9b c6 3c e0 7a 06 be
       0.030110225 -0.23385322 0.024244247 -0.1313281
000120 52 4c ed 3d fd b0 3c be 2c 69 e4 3d 40 d8 0b be
       0.115868226 -0.1842689 0.111528724 -0.13656712
000130 8e af d7 bd 7e 5b 06 bf 66 d0 ff bd 0c 02 37 3e
       -0.10531531 -0.52483356 -0.12490921 0.17871875
000140 24 24 5e be e5 42 6d 3d 12 fd 1f be fb 80 fd bd
       -0.21693474 0.057925124 -0.15623882 -0.12378117

lstm.bias_hh_l1 f4 [84]
000000 d1 ec 9d be 58 cb b3 be 65 00 0c bc d7 2c 52 be
       -0.3084474 -0.35116076 -0.008545016 -0.20524918
000010 67 4e 36 bd 12 67 e5 3d d5 9b 56 be f4 ac 02 3e
       -0.044508364 0.112013 -0.20957883 0.12761289
000020 06 b9 4f bd 6e 37 9f 3d 76 70 cf 3d e3 4d 56 be
       -0.05071356 0.07774244 0.10128872 -0.20928149
000030 91 28 da 3d a1 7c 84 be d2 4f c8 be f7 ca 9f 3d
       0.10652269 -0.25876334 -0.39123398 0.07802384
000040 9d ba 8d 3d da 9c bf 3d d4 63 7c bd c9 64 41 3c
       0.06920359 0.09356089 -0.06161864 0.011803814
000050 0a d0 25 be b8 2a 32 3d 91 16 8b be 0e b2 8f be
       -0.16192642 0.04349777 -0.27165654 -0.28065532
000060 90 cf d7 bd 3a 6d ee 3d bd 35 3e 3e e9 91 84 be
       -0.10537636 0.11641927 0.18575187 -0.2589257
000070 0e ca c2 3d ef d3 62 bd 08 87 21 be a9 e0 11 be
       0.09511195 -0.055377897 -0.15774167 -0.14245857
000080 75 3c b7 bc 7f fa a5 bd 77 6d 65 be 92 24 d4 be
       -0.022367695 -0.08104419 -0.22405039 -0.4143415
000090 b8 6f f0 3d 95 e8 10 bd 71 3d 0c be 3f ac c6 3d
       0.11740059 -0.035378058 -0.13695313 0.09700822
0000a0 d9 0e 3b 3e 4d ca ad 3d ba ef ab 3d 81 fa d7 bc
       0.18267383 0.084858514 0.083953336 -0.026364567
0000b0 f1 24 f6 bc 9a 82 40 bd 4a 39 d9 bd 0d 15 d0 3d
       -0.030046912 -0.04699955 -0.1060663 0.10160265
0000c0 9d 14 92 bd da 40 9f bc 50 55 b7 bc 18 63 18 bd
       -0.07132838 -0.019440103 -0.022379547 -0.03720388
0000d0 ac 42 69 3e ee 94 25 bd 3c ac 7b bd 85 27 25 3e
       0.2277934 -0.040425234 -0.061443552 0.16128357
0000e0 52 6a ce bd ac ce 82 bd ea c9 23 3e 81 bd c7 3d
       -0.10078873 -0.06387076 0.15994993 0.09752942
0000f0 20 82 37 3e c3 c4 a8 3c fb 20 c3 bd 21 cf 80 bd
       0.17920732 0.020601636 -0.09527775 -0.06289507
000100 92 57 84 be 4d d2 e9 be 46 98 32 3d 7c 56 7a be
       -0.2584806 -0.4566826 0.04360225 -0.24447054
000110 a9 b2 36 3e 7c a0 ed 3c b6 8f 8a 3e 33 e8 3a bc
       0.17841591 0.029007189 0.27062768 -0.0114079
000120 fc 92 0f be fa ce aa bc a8 6c 77 be fd cc 58 be
       -0.14020914 -0.020850647 -0.24162543 -0.21171947
000130 b6 9a 85 be fa 99 c7 be 9e 3e ec 3b a7 7e e3 3d
       -0.26094598 -0.38984662 0.007209613 0.111081414
000140 61 ed 2a be 53 5e 89 be 34 3c 04 bd 27 cc 1e bb
       -0.16692115 -0.26829776 -0.032283977 -0.002423057

attention.weight f4 [1, 21]
000000 fc 4c 5b be 28 28 9d 3d b6 2c d3 3d de 31 19 3d
       -0.21416086 0.07673675 0.10311262 0.037401073
000010 aa ef 51 be 98 b6 34 3e e2 c8 80 be 5c d2 19 bc
       -0.20501581 0.17647779 -0.2515326 -0.0093885325
000020 8c e2 42 be 51 55 2d be 61 b1 7b be 49 12 45 3e
       -0.19031733 -0.16927077 -0.24579383 0.19245256
000030 12 dd 31 3e 6f ea 05 3e 04 94 91 3c d4 48 8d be
       0.17369488 0.1307771 0.017770775 -0.27594626
000040 94 bf 08 3e 81 d5 6c 3e 74 00 50 be 0f f5 88 3e
       0.13354331 0.2312832 -0.20312673 0.26749465
000050 0b 54 f3 3d
       0.11881264

fc.weight f4 [1, 21]
000000 63 3f ac 3c c4 1d 0d bd ad 41 8e 3b bd 48 59 be
       0.021026319 -0.034452215 0.0043413253 -0.21219154
000010 42 22 b1 3d 19 22 e9 bd db 5a e6 3d 18 67 2d 3e
       0.08649112 -0.11383457 0.11247798 0.16933858
000020 02 a4 cc 3d 3b b7 ff 3d b2 03 ab 3d 45 44 71 bd
       0.099922195 0.1248612 0.08350314 -0.058902998
000030 a3 be 9f bd e0 8b aa 3d 9b 3e 56 bc a7 58 b3 3d
       -0.07800033 0.0832746 -0.01307645 0.087571435
000040 5b 89 ad bd 48 52 53 bd 24 76 65 3c 68 c7 92 bd
       -0.08473464 -0.05159214 0.014005218 -0.0716694
000050 fb 17 34 3e
       0.17587273
