models/lstm.pth (torch, 26239 bytes, 9 tensors)

lstm.weight_ih_l0 f4 [84, 4]
00000000: ac59 04be a221 48be 2380 3f3e 1ca9 debe
00000010: 5007 a53e ece1 ccbd 9788 92be aa57 86be
00000020: dd0d cf3d 8fcd 89bd c83d 023e 7e8d 99bd
00000030: 9b7c 3abe 6f9a 493e 7789 a1bd 9104 a33d
00000040: 37cb 733e 1e5d 273c 0f69 1f3d 750f 8c3e
00000050: 35cb 563e 35a8 4e3d 0145 303d 4639 e9bd
00000060: 2d15 103d 42d4 8bbd f9c0 85be 0366 35be
00000070: 244e 203d c284 533d 45d2 96be fa9f 18bd
00000080: 8f5a 07be d47a eebd 8805 08be ca6b d43e
00000090: 1bd3 b8bd 8820 5d3d 12c9 6fbe 7b5d c9bd
000000a0: d60a f2bc 8852 573e 1444 b9be 30d8 f1be
000000b0: 3558 b33e c2a7 e23e c247 f3bd 97f0 26bf
000000c0: 1e7c 23be 0b76 60be 334e 393e c4b2 27bf
000000d0: d350 553e 259d f93d 1548 58be 414d 90be
000000e0: 1455 0fbd f02d febd 704a d1bb 69b4 30bf
000000f0: 0120 de3e 23b4 1bbe 33ec eebd 4c8a fb3c
00000100: d7c8 323d b38b 813d 0138 cd3d 4687 a43e
00000110: 5520 f93e 3f7c 7f3e 10eb fbbd 274a 593e
00000120: e0d2 34bd f078 76be e6fe ef3c d10e ccbe
00000130: a2a8 1d3c fc69 42bd 9cc4 64be 2901 36be
00000140: 20c7 833d d4b0 93bd 0aaa 6cbe 195b c1be
00000150: 39fa 9c3d 2a74 82be cf24 2a3e 1dac 6ebe
00000160: 6c9d 7f3d 0007 55bd 2c71 60be 1ced 9dbe
00000170: 816b 3f3e 27e6 21be dbb3 493c c3e1 a2be
00000180: b81d b3bd 0f55 0d3c 5036 82bb 0d15 8d3d
00000190: 0904 40be ef2b 463c 258e 18bc 0d8c f23d
000001a0: 1cc0 893e c693 03bb 4e7f b2bc 91c8 c3be
000001b0: a50c 1b3e 2a2e 753e 0d39 16bd 81ad efbd
000001c0: 2688 20bc 3123 e0bd 1ee2 38bd 9b12 e33d
000001d0: 39c3 8539 ac1a cdbd d897 24be 7800 6e3d
000001e0: 78d4 f53d 743e 433e 3337 a3bd 46a5 793e
000001f0: 9242 ddbd a66b 353d 70cb d3be 3876 60be
00000200: 28bd ca3c 793a 4e3e 734a a9be b51b 7cbe
00000210: f87a 7ebe a3b4 acbe ac4e 24be efd8 71be
00000220: 1ef3 77bd 7d24 933d d090 d03c 4ce4 863c
00000230: 418a 253e a363 54be d20a 253e 825d efbe
00000240: cc83 013e b16c acbe f6d0 423e 847e 18bd
00000250: 13a6 8d3e 459d c5bd 1080 0fbe 502d 533e
00000260: 5b48 9c3e a19a 0abe 4d48 c5be e622 313e
00000270: 6737 d03d d6ea 75be e182 ea3c acd4 0cbf
00000280: 07b5 643d 7817 3b3e 4f88 b1bd 1cc8 28be
00000290: 3b68 a43e 8d21 f03d cf19 793d 0e31 a1be
000002a0: 0572 e53c 9fc3 1cbe 18c9 353e 60ef a53e
000002b0: b77e 81be af04 2fbb 3a17 c03c c4b8 15bf
000002c0: 22e4 08bd 82de 02be 21bf c73d 736d cc3e
000002d0: 5f85 4b3d 5efc 51bd 97d5 093e d71c c8be
000002e0: 6ede 1cbe 1600 69bd 0700 f0bd adb9 dfbe
000002f0: ac71 80bd 4a22 0b3e 404d 5a3d 9b1e 01bf
00000300: a925 3c3e 4fd8 05be 6ea0 89bb 691f bd3e
00000310: 5221 87bd d111 96bd c5de 83bd c3fe 743e
00000320: 9384 323e c22f dcbd 7b97 883d 582a 9b3c
00000330: be07 90be 6a08 d13d 8f6f 3c3e 40d0 8c3e
00000340: 8e6e cabe 61cb 933d 42c5 af3d 8517 06bf
00000350: ffc3 cf3d 2db3 10be 13cb d43d 09d0 cdbe
00000360: 7e14 cf3d b256 aa3d 53c5 1fbd e447 cebe
00000370: e474 01bd ff9d babd dc69 bcbd ca84 f93e
00000380: be3b d83e aa25 30bd 00a1 db3d 7f10 023f
00000390: c77d aabd 81d9 8e3d bc5f 10be 4d4b fbbe
000003a0: da34 783e fb9c d33c 874b c6bd 512a 1b3f
000003b0: 1a43 b23d ef9e 03be 40b5 113e 8873 13bf
000003c0: 0daf d33d 2d1e d8bd 1f3c c8bd 15e3 c33e
000003d0: 4458 84bd e9db 273d d3dc 303e 64b3 54bd
000003e0: 0c18 acbd 8d05 9c3d 8a18 543e 0fb6 ff3e
000003f0: 268f 7d3d 8be0 403d a246 2ebd 0356 fabc
-0.12924832 -0.1954408 0.18701224 -0.43488395 0.32232141 -0.10004029 -0.28619835 -0.26238757
0.10110066 -0.0672866 0.1271888 -0.074976906 -0.18211596 0.19687818 -0.078875475 0.07959855
0.23807989 0.010215072 0.03891855 0.27355543 0.20975955 0.050453383 0.043034557 -0.11387877
0.035176445 -0.06827594 -0.2612379 -0.17714696 0.03913702 0.05164028 -0.29457298 -0.03726194
-0.13218139 -0.11644521 -0.1328336 0.41488487 -0.0902464 0.053986102 -0.23416546 -0.09832283
-0.029546183 0.21027577 -0.36184752 -0.4723525 0.35028234 0.44268614 -0.11878921 -0.6521086
-0.15965316 -0.2192003 0.18096237 -0.6550715 0.20831613 0.12188176 -0.21121247 -0.2818394
-0.034993246 -0.12411106 -0.0063870475 -0.69025284 0.43383792 -0.15205435 -0.11666145 0.030705594
0.043648567 0.06325474 0.100204475 0.32134455 0.4865748 0.2494974 -0.12300694 0.21219693
-0.04414642 -0.24069571 0.02929635 -0.39855054 0.009622725 -0.047464356 -0.22340626 -0.1777388
0.064344645 -0.07211462 -0.2311174 -0.37764814 0.07664914 -0.2547925 0.16615604 -0.23307844
0.06240599 -0.05200863 -0.21918172 -0.30844963 0.18693353 -0.15810452 0.012310947 -0.31812868
-0.08745903 0.008626237 -0.0039737597 0.06888781 -0.1875154 0.0120954355 -0.009311234 0.11843119
0.2690438 -0.0020077094 -0.02178922 -0.38238958 0.15141542 0.23943391 -0.0366755 -0.11703015
-0.009798085 -0.10944212 -0.045137517 0.11087533 0.0002551319 -0.10014853 -0.16073549 0.058105916
0.12003416 0.19066793 -0.07969513 0.24379453 -0.10803713 0.044292115 -0.41366148 -0.21920097
0.0247484 0.20139493 -0.33064613 -0.24619944 -0.24851596 -0.33731565 -0.16045636 -0.2361791
-0.06053459 0.07184694 0.025459677 0.016466282 0.16166021 -0.20741133 0.16117409 -0.46751028
0.12647933 -0.33676675 0.19025025 -0.03723003 0.27665767 -0.096491374 -0.14013696 0.20622754
0.30523953 -0.13535549 -0.38531724 0.17298469 0.10166817 -0.24015364 0.028626861 -0.5501201
0.055836704 0.18270671 -0.08668577 -0.16482586 0.32110772 0.11725149 0.06081563 -0.31482738
0.02800847 -0.15308999 0.17752492 0.3240919 -0.25291988 -0.0026705672 0.023448575 -0.58485055
-0.03342069 -0.12780192 0.09753252 0.39927253 0.04968774 -0.051266067 0.13460384 -0.39084503
-0.15319225 -0.056884848 -0.11718755 -0.43696347 -0.06271681 0.13587299 0.053296328 -0.50437325
0.18373741 -0.13070796 -0.004200033 0.36938027 -0.06598152 -0.07327617 -0.06438974 0.23925309
0.17433386 -0.107512966 0.066695176 0.01894109 -0.28130907 0.10206683 0.18401931 0.27502632
-0.39537472 0.07216526 0.08582546 -0.5237964 0.10144805 -0.1413085 0.10390296 -0.4019778
0.101113304 0.08317317 -0.039006542 -0.40289223 -0.031605616 -0.091121666 -0.091998786 0.48734123
0.4223308 -0.04300467 0.10724068 0.5080642 -0.083247714 0.06975079 -0.1409902 -0.49080887
0.24238911 0.02583169 -0.096823744 0.60611445 0.08704205 -0.12853597 0.14229298 -0.5759816
0.10336123 -0.105526306 -0.09777092 0.38259187 -0.06462148 0.040981207 0.17271738 -0.051928893
-0.08403024 0.07618246 0.20712486 0.49943587 0.061904095 0.04708914 -0.04254783 -0.030558592

lstm.weight_hh_l0 f4 [84, 21]
00000000: b38c 87be 53a2 7f3e 13d3 d1bd 9701 7a3e
00000010: 99c3 a33e 4408 8d3e 33a1 b2be 92e3 fabb
00000020: 01d7 783c 2eb6 90be 0545 6b3b aa32 9b3e
00000030: 6e8e 04be 79a4 37be 117a 39be 2a3a 603e
00000040: daf5 5abe 8438 003f 31a3 163d d090 efbd
00000050: fd64 4f3d 7612 14be 3168 a0be bf5d 56be
00000060: 4e9c 18be 2a09 0c3e f4cd 4bbe 7f2e 72be
00000070: e38c 3fbd 532a f13d 93c5 d0bd 385f 11bd
00000080: 183c ce3c e53d 033e c370 7ebe 9f3f 0ebd
00000090: f586 343d 50f0 29bc 4fd1 75bd e14d dfbd
000000a0: f0d6 fabd 204a 08be 21c5 9dbe 9095 713e
000000b0: 2a48 b5be e245 ac3e 01e8 c23e 2193 c23e
000000c0: a89c 15be a703 8d3e 05b5 aa3e 96c0 0bbf
000000d0: 763f ff3e 74eb 8b3e 9c18 b03e cc11 cebe
000000e0: 1569 56be c750 b53e 3cd5 0cbf 022c 0f3f
000000f0: 2771 e73c d3a3 3cbe 82a9 1cbe fdfe d53d
00000100: 5126 cbbd 4986 7b3d 8e1c fcbd d9b6 163e
00000110: a47b fcbd b5f4 03be 1896 24bc 58ab 3f3e
00000120: 34ae 54be 1b26 66be 21d0 13bf 1495 32be
00000130: afd9 143e 022c c73e 18f0 debd 223a 6d3e
00000140: 648f 32be a1f7 073f 9474 2fbd a4b6 be3d
00000150: 6903 41be ce7f 0bbe 5eb0 c5bd 8220 24bd
00000160: e3b8 02bd b79b 9bbe 56ff 52bd e33a bd3d
00000170: 9272 423e b69f 673e c967 baba d041 4abf
00000180: 1ff6 06bf 83dc ed3c 829f cc3e 3fc5 80be
00000190: 68fc d5bd 572a 97bc 0eb2 133f f170 babe
000001a0: 1ae7 1a3e 8c98 48be ffb2 3abe 9fcc 453e
000001b0: 22d0 243e bb0b 9cbd d02b 99bd bd23 d73b
000001c0: b245 d5bc 3aed d2bd 8212 b43d 6460 573e
000001d0: 18c6 a23d 96e5 853e dc23 fa3d f5c2 4ebc
000001e0: 5893 343e 8b4b a2bc 7a01 a1bd 8e96 31be
000001f0: fd2f 71be de36 32be 06eb 29bd d60d c73e
00000200: 7cd5 1abe 95c0 8a3d b834 1e3e a4d3 ad3e
00000210: 6d5a a8be a9b0 793e 83f1 05be 309d c8bd
00000220: 5f63 d13e d4b3 37bd 9466 003f 3302 fbbe
00000230: 4491 84be 1c05 b13e 847e d3be cd83 163e
00000240: 5bc4 7cbe f877 72bb bbf9 a8bd 904b b43c
00000250: 1336 263d 270a 86be 711b 3c3e a2ae 033e
00000260: a36d f6bd 9c41 aa3d c52e 97bd 3f62 593d
00000270: 0a33 09be 648a 173e 91f1 5b3c 778d 92bd
00000280: e9f9 3f3d 5131 1dbd bde5 56bd b7f9 be3c
00000290: 215f a63e cc5b a23e cd45 323d 593a 733e
000002a0: c72e e83d 6a03 e7bd 15a7 083c 0b12 0cbe
000002b0: c0cb d0bd bc91 aa3c a1ea 09be 7600 6abd
000002c0: 7861 013e 8212 14be dfdc 21bc 298c 00bf
000002d0: a572 bfbe eb78 2f3e dc61 173f 9f27 93bd
000002e0: ea93 64bd bafa 8dbd 1cc8 8a3e 6d00 91be
000002f0: e3d7 023e 953c 78be 59e7 f13d bd4f a5bd
00000300: 6261 e2bd 3896 e63c ee52 1fbe 8466 3abe
00000310: c657 1b3e c732 3b3d a0ac 93be 4a48 103d
00000320: 340a 463e d94f 91bd dda3 bcbe 5c77 6bbd
00000330: eed4 753e ccb8 d73d eb6c 393d 0b5f 4fbd
00000340: 0ab3 80be e6cd 76be 4c02 54be 67cb ab3c
00000350: 6dd1 c3be e2fb 27be 42cf 9e3d c474 083c
00000360: 7c1c 9abe 21b4 7e3e 2ab9 79bd df28 9dbe
00000370: 72c6 b53d b24b 71be aab0 b93e 05a2 abbd
00000380: 6206 2abd 446c 6f3d 5ded ffbd 0248 313e
00000390: c4bc 99be 213f 52be 88e3 4dbe 7583 e0be
000003a0: bce8 f43e d9b3 34bf 42db 0e3f 7f5f a03e
000003b0: 320c ee3e 65f1 c9be f055 1fbe 4b64 f3bd
000003c0: 39ac a2be 1b19 ca3e a1ed 893d 9bb5 7a3e
000003d0: 91c5 07be da2a cfbe 2967 103f dca1 00bf
000003e0: fe88 d93e a371 e8be 1b5f 0f3e d0cf 06bf
000003f0: 4a7b d7bd 41f3 613e 4566 fdbd 5712 833e
-0.26474532 0.24964266 -0.10245337 0.24414669 0.31985167 0.2754537 -0.3488861 -0.007656523
0.01518798 -0.28263992 0.0035899293 0.3031209 -0.12944958 -0.17933835 -0.18112971 0.21897188
-0.21382847 0.50086236 0.036776725 -0.11697543 0.05063342 -0.14460167 -0.31329492 -0.20934199
-0.14903376 0.13675371 -0.19902784 -0.2365055 -0.04676522 0.11775651 -0.10193934 -0.0354912
0.02517514 0.1281658 -0.24847703 -0.034728643 0.044074018 -0.010372236 -0.060014065 -0.10903526
-0.12248027 -0.13309526 -0.3081446 0.2359221 -0.3540662 0.33647066 0.3806763 0.38002875
-0.14610541 0.2754185 0.33341232 -0.5459074 0.49853104 0.27328074 0.34393775 -0.40247953
-0.20938523 0.3541319 -0.5501287 0.55926526 0.028252197 -0.18421869 -0.15299037 0.10449026
-0.09919418 0.06140736 -0.12310134 0.14718188 -0.1232827 -0.12886317 -0.010045551 0.18717706
-0.20769578 -0.22475474 -0.57739455 -0.17439681 0.14536165 0.38900763 -0.10885638 0.23166707
-0.17437512 0.53112227 -0.042835787 0.0931218 -0.18848957 -0.13622972 -0.0965278 -0.040070064
-0.031914603 -0.30392238 -0.05151304 0.092397474 0.18989018 0.22619519 -0.0014221604 -0.7900667
-0.527193 0.029035812 0.39965445 -0.25150487 -0.10448533 -0.018452806 0.57693565 -0.36414292
0.15127221 -0.19589442 -0.18232344 0.19316338 0.16095021 -0.07619425 -0.0747906 0.0065655396
-0.02603421 -0.102991536 0.087925926 0.21032864 0.0794794 0.26151723 0.12213871 -0.012619724
0.17634332 -0.019811412 -0.0786161 -0.17342588 -0.23553462 -0.17403743 -0.0414839 0.38877743
-0.151205 0.06775013 0.15449798 0.3395053 -0.3288149 0.24383797 -0.1308041 -0.09795606
0.40896127 -0.04484923 0.5015652 -0.49025115 -0.2589208 0.3457421 -0.4130746 0.14698716
-0.24684279 -0.0036997776 -0.08250757 0.022008687 0.040578913 -0.2617962 0.18369843 0.12859586
-0.1203263 0.08313295 -0.073819675 0.05307221 -0.13398376 0.14798886 0.013424293 -0.071558885
0.046869192 -0.03837711 -0.05246519 0.023312433 0.32494453 0.3171066 0.0435236 0.23752727
0.11337047 -0.11279948 0.008340617 -0.13678758 -0.10195112 0.020821445 -0.1346841 -0.057129346
0.12634838 -0.14460185 -0.00987932 -0.5021387 -0.37392154 0.1713597 0.59133697 -0.071852915
-0.055805124 -0.06932588 0.27105796 -0.28320637 0.12777667 -0.2424186 0.11811704 -0.080718495
-0.110537305 0.028147802 -0.15558979 -0.18203169 0.15170202 0.045702722 -0.2884264 0.03522519
0.1933983 -0.07095308 -0.36843768 -0.057486877 0.24007007 0.10533294 0.045269888 -0.05062775
-0.25136596 -0.24101982 -0.20704001 0.020971013 -0.38245717 -0.1640468 0.07754375 0.00832862
-0.30099857 0.24873401 -0.0609676 -0.30695245 0.08875741 -0.23564032 0.36267596 -0.08380512
-0.041509993 0.05845286 -0.12496445 0.17312625 -0.3002683 -0.20531894 -0.20106328 -0.43850294
0.47833812 -0.70586926 0.5580331 0.31322858 0.4649368 -0.39441982 -0.15560126 -0.11884364
-0.3177202 0.3947228 0.06734777 0.2448334 -0.1325896 -0.4046238 0.5640741 -0.5024698
0.4248733 -0.45399198 0.14001124 -0.52660847 -0.105215624 0.2206545 -0.12373022 0.2559993

lstm.bias_ih_l0 f4 [84]
00000000: c01d c23d e125 933e bbc0 5e3e 71dd 34be
00000010: 2f5d 863e 3884 9f3e e281 033d c278 a93e
00000020: 67a0 48be a3ad 943e 0710 443e dd02 433e
00000030: 5484 22bd f7ad 9abc 694c 433e 7d33 cc3d
00000040: bfb3 6b3e 2872 1b3e 180f 70be 9858 503e
00000050: 45c2 ebbd 396e 2c3e 72af 913d 0fa8 793d
00000060: 04f8 383d 641b 2ebc 218e a13e 730d 6c3e
00000070: bacf 7e3e e377 aabc d568 4bbe 4d1e 153e
00000080: 4986 013d 9158 c3bc c8ce 153e 228b 54be
00000090: d2f6 a53e b930 d83d 0fb9 bbbb f50e 56be
000000a0: 47c2 333e c0cc 0cbe 9ff7 173d 7af7 4bbe
000000b0: fa79 593e f200 afbd 62a3 34be c0a8 f8bc
000000c0: 2971 02be 5b81 b63e 12a7 a03e b4c3 32bd
000000d0: 4267 80bd 280d 9ebe db10 963b e0dd ac3d
000000e0: c288 e43c 1d57 39bd 57c7 13be 8a64 f9bd
000000f0: 7ede ce3d a949 bebe 0cdd 3b3e ba27 43be
00000100: 04db a13e 031f b33e 69f3 263d 2067 2a3d
00000110: 9f3e fa3d f89e 723c 1515 27bc 7ed8 c53d
00000120: cfac 6b3e 9218 573e 860b a33e 42fd 23be
00000130: 21e5 613d 3468 c83e eb0a 373e e854 663e
00000140: 436e 603e c8c1 02be 33f5 ff3d f128 e4bd
0.094783306 0.28739837 0.21753208 -0.17662598 0.26242968 0.31155562 0.032106288 0.33099943
-0.19592439 0.29038724 0.19146739 0.19044061 -0.03967698 -0.018881781 0.19072117 0.09970758
0.23017786 0.15180266 -0.23443258 0.20346296 -0.11511663 0.16838922 0.07113542 0.06095129
0.0451584 -0.010626648 0.31553748 0.23052005 0.24883929 -0.02080912 -0.19864209 0.1456234
0.031622205 -0.023845943 0.14629662 -0.207562 0.3241487 0.10556168 -0.005728848 -0.20904143
0.1755458 -0.13749981 0.037101384 -0.19918624 0.21237937 -0.08545102 -0.1764045 -0.030353904
-0.1273848 0.35645565 0.31377465 -0.04364367 -0.06269695 -0.30869412 0.004579646 0.08440757
0.027897242 -0.045249093 -0.14431511 -0.121773794 0.10101031 -0.37165573 0.18346041 -0.19058123
0.31612408 0.34984598 0.040759478 0.041602254 0.12218975 0.014808409 -0.010197897 0.09660433
0.2301514 0.21005467 0.3184473 -0.16014579 0.055150155 0.39142 0.17875259 0.22493327
0.21917062 -0.12769234 0.1249794 -0.111406215

lstm.bias_hh_l0 f4 [84]
00000000: 6d87 d4bd 7ae4 e03d 6fd3 423e c4e0 cebd
00000010: dab3 9a3e 3633 773e 57d3 a63e b521 1b3c
00000020: d9d3 c0bd d280 53bd b581 2d3e 1702 053e
00000030: a7d1 72be 63fd cbbd 2b2d 9f3e ba8a 8c3e
00000040: 761a ae3e aeca 653e b9e4 7abe ce88 29bd
00000050: c9f6 edbc def5 1c3c 0c02 643e d4b8 9d3e
00000060: 9b12 3bbd b6bb f7bd 243b 063e f513 7e3e
00000070: fb98 033e 0c13 913d 6d44 35be 69c0 c7bd
00000080: 877e 25bd 5501 16be 7b37 84bd 2083 d53c
00000090: 8a7b 183e 5809 883e c5cf 3d3e 1719 13be
000000a0: b4a5 cfbd 9625 53be 60d8 b53d 7306 91bd
000000b0: 754a f8bc 82f8 53be c5a4 ef3a b93a 9ebe
000000c0: a08b 473b d72f 8e3e 36d8 653e 6e73 913d
000000d0: d944 3c3d f4ec 62be b8c3 a8be 7119 03be
000000e0: a306 643e 7c7b 1dbe a2fb 5e3e 8996 08be
000000f0: 5ec4 863e 4b5a 54bd 3451 3d3e 2428 7bbd
00000100: 736b 963e d1c3 6a3d 843d 4ebe c419 5e3e
00000110: 41e8 143e c21e 963d 36a3 7abd fabe f0bd
00000120: 69c5 36bd a29d 593e 9972 4d3e fab7 19be
00000130: 5606 873e aaf9 ad3d 9ef4 b63c b876 a83e
00000140: 43ab 103e 6a2c 78be 6184 70be 8851 a0bd
-0.10377393 0.109810784 0.19025968 -0.101014644 0.3021534 0.24140629 0.32583115 0.009468486
-0.09415407 -0.051636524 0.1694401 0.12989078 -0.23712789 -0.09960439 0.31089148 0.2744959
0.34004563 0.22440597 -0.24501313 -0.041390233 -0.02904834 0.009580104 0.22266406 0.30805075
-0.04567204 -0.1209635 0.13108498 0.248123 0.12851326 0.07083711 -0.17701884 -0.09753496
-0.04040387 -0.14648946 -0.064558946 0.026063502 0.14890876 0.2656963 0.18536289 -0.1436504
-0.10139027 -0.20619807 0.08879161 -0.07081308 -0.030308941 -0.20700267 0.0018283358 -0.30904177
0.0030448213 0.27770874 0.22445759 0.071020946 0.045964096 -0.22160703 -0.32961822 -0.12802674
0.22268157 -0.15379137 0.21775678 -0.13338675 0.2632169 -0.051843923 0.18488008 -0.061317578
0.29378852 0.05731565 -0.20140654 0.21689516 0.14541723 0.07330085 -0.061190806 -0.11755176
-0.04462186 0.21251538 0.20063247 -0.15011588 0.2637202 0.08494885 0.02233344 0.32903075
0.14127831 -0.24235693 -0.23487999 -0.07828051

lstm.weight_ih_l1 f4 [84, 21]
00000000: fe18 88bd 612b f2bc f96d 3ebd 39a6 533d
00000010: 0e99 b83e a074 af3e af3e 6dbd b1c5 263d
00000020: 220f 113e f6ea f33d 0736 1fbd 72a9 563e
00000030: 835c 1c3e ef6b 34be 06ba 91bd 600c a03e
00000040: ddd6 853d 8247 5a3d ed6e 193e 56a8 2a3d
00000050: 6d5c adbd 0270 eebd 2a43 8ebe 9a46 d2bc
00000060: 0051 253e c144 cabd f94c 3fbe bb9b 55bd
00000070: 61c8 18be fe4a 793d 2489 bb3c 510d 1dbe
00000080: a40d a2be 3763 debe 0c70 9b3d 7d2b 753e
00000090: b6d7 26be 1a98 0dbe be96 19be c5ec 8e3e
000000a0: bb78 3bbe 10b8 283e 9c83 15be c3d6 a93e
000000b0: 3234 493b a79a 963e 4a08 8e3c 48f9 aa3e
000000c0: 56cb d7bd 67c3 b5be 47c8 92be 8ff4 17be
000000d0: 23c2 993e 629f a33d dc1c 073e f8b0 f33d
000000e0: 6de8 a9be 6b24 9b3e 0372 e3bd 6c6e 063e
000000f0: b885 96be 33e9 8e3d a599 24bd 97c2 09be
00000100: 14fb 0b3f ca47 94be 8297 983e b5f0 df3e
00000110: f46e 4f3e 4fd6 e1bd f0f7 3e3d 4e85 023d
00000120: c50a d9be ab52 793e 2584 1e3d 9e2d f23d
00000130: d4ae 25bd 0f77 fa3d ae13 c63e 6462 e7be
00000140: 0e3b 783e dc1f f7bd a6eb bebd 04c1 c8be
00000150: a748 163d 67f9 313b df1a e9be 9867 b13e
00000160: fcab b73e 32a2 373d 6801 96be 4e45 843e
00000170: 9693 57be 56ac 49be f0c4 983e 6653 4e3d
00000180: 497c 263e 5be6 43be c037 6bbe 4f35 ce3e
00000190: c501 86be ea3f dc3e e634 933d 0be3 c0bd
000001a0: f086 afbd b2db 14be bd69 5e3e 9ba5 d3bd
000001b0: d252 963c 0573 d93e 8468 843e c3ee b6be
000001c0: 1a67 963d 272b 9c3c fac4 95be d6bb 1f3e
000001d0: df89 fdbd 6d0d c23e fc50 96be 327b b7be
000001e0: 56ae 623e 6bd0 93be f7f3 4d3e 3c62 adbe
000001f0: da60 6bbe 57e5 87be 2c6e babe 17bd 973c
00000200: 9872 66be a308 293e bf04 363e f44e b3bd
00000210: eca5 063e f6fc 5bbd 71e0 6fbd b11e 27bd
00000220: f24d b1bd 91a8 1bbf a892 b2be e78a 83be
00000230: 05ef 113f 3035 e93d bc93 82be 95af 0a3e
00000240: 6a1d 603e 39b3 aabe a158 603e 3643 90be
00000250: 46b4 7e3e d5b2 d5be 2003 5b3e 15b0 d43d
00000260: d6c4 9f3e ecac aebe 2785 643d 9c1d 273e
00000270: 4bf6 cbbe 586f b93e 1a0f 10bd 5fe4 833e
00000280: a1d3 c5be 8347 4dbd 80e3 d63e 40c2 18be
00000290: c538 bd3e c550 ccbd a609 64be 8780 83bd
000002a0: 1dbb cabd 0b4c 893e 6862 ebbd 9435 0cbe
000002b0: 4840 b43e ad89 363e 4dbb ccbd b247 c4bd
000002c0: 6939 07bc 1218 99be f18f 083e c592 2d3d
000002d0: 9a47 a33e 22db 10be 2866 2dbe 89a3 b53e
000002e0: 2a9c e23c ed53 093e 5c3c 98bc 930f 88bd
000002f0: a56b 75be a2fe babe 6450 cabc 9e21 9fbe
00000300: c306 3cba aff6 8a3d 6cf3 2cbe 76cd a8bd
00000310: d3a2 82be 1e59 f4bd d301 583e ce80 e03d
00000320: 58fb cebe 2dd2 a1be f08b 4fbd 2d68 283f
00000330: 444e 823e 8c6c 02bd 3377 113e 0527 153f
00000340: 58d6 9fbd b004 853d 96b2 e4bc 475b 8fbe
00000350: c987 893e c92a 1f3e 5d63 fc3c b564 40bd
00000360: 8709 5cbc e9b1 8fbe 9d67 04bd 220d 843e
00000370: 93d7 23be 088a 63be 3352 a5bd 2d39 7b3e
00000380: 1289 093e 07d5 543a f0f0 8abd f11a 37be
00000390: 7b9a 803e 20e3 d3bd fa1a 803e e185 2dbe
000003a0: b8c4 8d3e 6d85 b9be 4034 293e 0aec 0e3e
000003b0: d9a5 113e aef8 5bbe 4e0b 92be be9f ecbd
000003c0: 63c3 613e e48f 623d 1c02 95be 03b6 b6be
000003d0: 37ae a1be 1906 2b3e b444 7b3c 81e4 b2bd
000003e0: b13f 5bbb 1f44 0e3e fafd 64bc 1adc e8bd
000003f0: 81ea dbbc 8c5b 2cbe eee4 a3bc 138b 4c3e
-0.06645392 -0.0295617 -0.046491597 0.051672194 0.3605427 0.34268665 -0.057921108 0.040715877
0.14165929 0.119100496 -0.038869884 0.20963076 0.15269665 -0.17619298 -0.07115559 0.3125944
0.065351225 0.05329085 0.14983721 0.041664444 -0.084648944 -0.116424575 -0.27785617 -0.025668431
0.1614418 -0.09876395 -0.18681706 -0.05215047 -0.14920188 0.060862534 0.022892542 -0.15337111
-0.31651032 -0.4343507 0.075897306 0.2394237 -0.16293225 -0.13827553 -0.1499891 0.27915016
-0.18307774 0.16476464 -0.14600986 0.33171663 0.0030701277 0.29414865 0.017337937 0.33393312
-0.1053683 -0.35500643 -0.28668424 -0.14839385 0.30030927 0.07989384 0.13194603 0.118989885
-0.3318514 0.30301222 -0.111057304 0.1312806 -0.29398894 0.06978073 -0.04018559 -0.13453136
0.5467999 -0.2896102 0.2980309 0.43738332 0.20257169 -0.11027204 0.04662317 0.03186541
-0.4239103 0.24347942 0.03870024 0.11825107 -0.040449932 0.1222974 0.3868689 -0.45192254
0.24241278 -0.120666236 -0.0932229 -0.3920976 0.03669038 0.0027156712 -0.45528314 0.34649348
0.358734 0.044832416 -0.29297948 0.25834125 -0.21052393 -0.19694647 0.2983775 0.050372504
0.16258349 -0.19130842 -0.22970486 0.40275046 -0.26173225 0.43017513 0.07187824 -0.09418305
-0.08570659 -0.14536932 0.21720023 -0.10334321 0.018350039 0.42470565 0.2586099 -0.35729036
0.07343884 0.019063545 -0.29251844 0.15598997 -0.123798124 0.37900868 -0.2935866 -0.35836178
0.22136816 -0.28869948 0.20112596 -0.3386401 -0.22986165 -0.2654216 -0.3641218 0.018522782
-0.22504652 0.16507201 0.17775248 -0.087552935 0.13149232 -0.05370804 -0.058563653 -0.040800754
-0.08657445 -0.60804087 -0.34877515 -0.25691912 0.5700534 0.11387098 -0.25503337 0.13543542
0.2188622 -0.3333986 0.21908809 -0.28176278 0.24873456 -0.41738 0.21387911 0.103851475
0.3120486 -0.34116304 0.055791046 0.16319889 -0.39836344 0.3621776 -0.035170652 0.2576017
-0.38638023 -0.050117027 0.41970444 -0.1491785 0.36957374 -0.09976343 -0.22269306 -0.06420999
-0.0989897 0.2681583 -0.11493379 -0.13692313 0.35205293 0.17825957 -0.09996662 -0.09583987
-0.008253434 -0.29901177 0.1333616 0.0423763 0.31890565 -0.14146093 -0.16933501 0.3547633
0.027662355 0.13410921 -0.01858347 -0.066435955 -0.23966844 -0.36522394 -0.024696536 -0.31080335
-0.00071726384 0.067853324 -0.16889733 -0.082423136 -0.2551485 -0.1193106 0.21094446 0.109620675
-0.40426135 -0.31605664 -0.050670564 0.6578396 0.25450337 -0.0318418 0.14205627 0.58262664
-0.07804555 0.06495035 -0.027917188 -0.27999327 0.26861408 0.15543665 0.030809099 -0.04697104
-0.013430006 -0.28065422 -0.032325376 0.2579127 -0.16000204 -0.22220623 -0.08072319 0.2453353
0.13431194 0.0008118902 -0.067842364 -0.17881371 0.2511786 -0.10346055 0.2502058 -0.16945602
0.27689147 -0.36234608 0.16523838 0.1395723 0.14223422 -0.21481583 -0.2852425 -0.11553906
0.2204719 0.055313006 -0.29103172 -0.3568574 -0.31578228 0.16701545 0.015336204 -0.0873499
-0.003345471 0.13893174 -0.013976568 -0.11370106 -0.026845219 -0.16831797 -0.020006623 0.19974928

lstm.weight_hh_l1 f4 [84, 21]
00000000: 1d57 553e 91ec a43d 3f2c 423e f8d6 a3bc
00000010: 2fde dc3d 7fcd b03d 3b1a b1bd ceb3 ca3d
00000020: b6fd 18bd ba29 193d fa64 f33d b4c0 613d
00000030: 7744 883e 8820 2bbe c21b 3f3d e5f4 dbbd
00000040: ed50 133c 4f9f 813a 986c 073e 4db9 31be
00000050: 5d3c 8abd fcb8 72be d7bd 843d 60cb 7c3e
00000060: e311 55be 666e a2be 3f59 b63e 2e84 ea3e
00000070: 9f7e d0bc 626f 56be 1219 673d 2dc5 293d
00000080: bf3f 1abd d0b9 6a3d 1dbc 143e 1ec7 6a3e
00000090: 7f97 a63d d116 c33e 3fb8 8f3e 50f9 3cbe
000000a0: c0e6 80bc 1e84 e33d 0736 18bd e1de 9f3e
000000b0: 0847 353d 0240 c43d d086 00be 1053 0ebe
000000c0: 9282 c4bc d7d8 2c3e 9a99 623d 3b2b acbe
000000d0: 7231 e83c 4d38 613d 120c bb3d ac85 ed3c
000000e0: 97ea 8ebe 9be0 793e caca 013e 1da6 423d
000000f0: 1d5f 183c 5a6b 873d 567c a4bd 72a6 083d
00000100: df9c a63e eb0e 84be e9ef 893d 7b6b 78be
00000110: 5b83 a73c fb5c fa3e f180 3ebe abff 05be
00000120: 4c8e 223e e27f 5dbe 5449 2cbb 6793 acbd
00000130: 6674 9bbe 9a2d c03e 8671 aa3e 717a 913e
00000140: f2c5 d93e 73b0 fe3b 46c7 dabd 3732 65be
00000150: 3a73 c5bd 7420 e53e 7bf4 a03d f5c7 7f3e
00000160: 1cc5 36be 07f8 943e 6781 4b3e b784 82be
00000170: a0e3 e5bd 1d26 ffbd fbb7 353e baa1 16bd
00000180: 3e95 113e 3a43 a8bc 4873 b93e d8bf 833e
00000190: 0a56 233e c168 713d 6ac1 86bd 41e9 843e
000001a0: af0b debd 0e4a 8f3d a9e6 613e f7f5 4d3e
000001b0: 737d c43d a77d dcbb d991 2f3e 57db f53d
000001c0: b8a0 4fbd 8288 a3bd 3a92 743e af3b 9bbd
000001d0: 0a1c 293e cc2b 433e 40a5 63be fee2 98bc
000001e0: 777d 5d3e ecea 093e 31e5 2e3e 193e 523b
000001f0: b1c5 3e3d 1b8a 06be 56c8 5ebd 9027 ab3e
00000200: af77 9a3e 175c aebe e2cf f13d 631e 2b3e
00000210: 8aba 133e 6d94 c33d 7905 983d 3601 793e
00000220: e7ff adbc 99af bebe 1334 46be 7ff3 6bbd
00000230: 4a4a 983e 11b1 bb3e 2d6a f63d 89ac 573e
00000240: c07c 0b3d f8ef e2be a040 26bd 7e6c d03d
00000250: 7426 e03e a009 b23d b9a6 adbc bf4e fabc
00000260: 655c 063e f706 623e 0c4b 193e f6b9 89be
00000270: f839 35be df24 c53d 2914 483e 9580 1a3e
00000280: 20da dfbd a171 4e3d 2a22 0d3e 90b9 783c
00000290: 49da c8bd 294f 23bb 54c9 b8bd 889b 9e3b
000002a0: 2bb1 65be 1738 5c3d dcd9 803e 98cb 773d
000002b0: 1ffb 83be 1e17 cc3e 48b7 c73d 1f20 bbbd
000002c0: c7c5 7fbd 498f 683d 5d4f cf3b 510e 653e
000002d0: bf93 2d3e a406 23bd 0582 ec3c c9b1 673e
000002e0: 3a13 d03d 0223 a03e 1a1b 53be ca5c 253e
000002f0: e2b7 82bd f65e 203c d4ae c43e ea3a 05bd
00000300: 7929 1abf 88b5 aa3d 3845 6f3e cb26 4c3e
00000310: 6867 783e 1e80 0fbe 215c 903e f0b3 1abe
00000320: 3e59 f1bd 5516 82be eb9e 84bd 9b01 e1bd
00000330: 96d4 a73e 60a8 60bd b0d3 1a3b a168 943e
00000340: 8292 b7bd f749 1c3e fff6 6cbd bc4d 603d
00000350: e427 a43d 1e5d ec3b 7e27 023d d7e6 5abe
00000360: 3bff c13e ff60 be3d 5ffa 1cbd 0a9e 9cbc
00000370: e04c 94bd 7777 8dbd 571d fcbd 4629 72bd
00000380: 4853 c1be 533f 06be 16cb 89be 7cc1 73be
00000390: 97ab e5bd e917 87bd 26b0 b7bc efb0 1bbe
000003a0: e430 303e 999e 933e 4c82 67be a8e9 9f3c
000003b0: aa25 5c3e d639 553e ee0d dd3d 7865 813d
000003c0: 3248 613e e889 5d3d f356 afbd 6950 17be
000003d0: e2a2 213e 3a72 513e e1a9 e23e 0b07 493c
000003e0: 4208 993a b4f6 b9bc 575c b9be 80a2 18be
000003f0: e963 ba3b 269f 813e 7c96 773e 32c9 5cbe
0.20834012 0.08052934 0.18962191 -0.019999966 0.10784566 0.08632945 -0.08647581 0.09897576
-0.037351333 0.03739331 0.11884494 0.055115417 0.26614735 -0.16711628 0.04665733 -0.10740069
0.008991462 0.0009889397 0.13225019 -0.17355843 -0.06749795 -0.23703378 0.064815216 0.24686956
-0.20807604 -0.31724852 0.35614964 0.4580397 -0.025451003 -0.20940927 0.056420393 0.041447807
-0.03765845 0.05730611 0.14524885 0.2292752 0.08134364 0.38103345 0.28070256 -0.1845448
-0.01573503 0.11109184 -0.0371609 0.3122473 0.044257194 0.09582521 -0.12551427 -0.13898873
-0.023988042 0.16879593 0.055322267 -0.33626732 0.02834389 0.054985333 0.091331616 0.028994404
-0.27913353 0.24402086 0.12675014 0.0475217 0.0093000205 0.066122726 -0.08031528 0.03336186
0.32541558 -0.25792632 0.06735212 -0.2425975 0.020448377 0.48899063 -0.18603875 -0.13085811
0.15874594 -0.21630815 -0.0026288824 -0.08426552 -0.30362242 0.3753479 0.33289737 0.28413728
0.42533833 0.007772499 -0.1068254 -0.22382437 -0.09641118 0.44751322 0.07859131 0.24978621
-0.17848629 0.2909548 0.19873582 -0.25491878 -0.11225057 -0.124584414 0.17745964 -0.03677533
0.14217088 -0.020539869 0.36220765 0.25732303 0.1595079 0.05893779 -0.065798596 0.2595921
-0.10842072 0.06996547 0.22060646 0.2011336 0.0959424 -0.006728846 0.1714548 0.120047264
-0.050690383 -0.07985021 0.23883906 -0.07579743 0.16514602 0.19059676 -0.22231007 -0.018662926
0.21629892 0.13468522 0.17079617 0.003208047 0.046575252 -0.1313862 -0.054390274 0.3342862
0.30169436 -0.34054634 0.118072286 0.1671081 0.14426628 0.09549794 0.07422919 0.24316868
-0.021240188 -0.37243345 -0.19355802 -0.057605263 0.29744178 0.36658528 0.1203197 0.2106191
0.034054518 -0.44323707 -0.040588975 0.10176943 0.43779337 0.08693242 -0.021197664 -0.030555127
0.13121183 0.2207297 0.14970034 -0.2689969 -0.17697895 0.09626173 0.1953894 0.15088113
-0.10930276 0.050401334 0.13782564 0.01518096 -0.098072596 -0.002491901 -0.09022775 0.004840318
-0.22430865 0.05376443 0.25166214 0.060496897 -0.25777528 0.39861387 0.09751755 -0.09136986
-0.062444475 0.056777272 0.0063265995 0.22368743 0.16950892 -0.039801255 0.028870592 0.22626413
0.10159917 0.3127671 -0.20615807 0.16148677 -0.06382729 0.009788265 0.38414633 -0.032526888
-0.6021953 0.083354056 0.23366249 0.19936673 0.24258196 -0.14013717 0.2819529 -0.15107703
-0.117846 -0.25407663 -0.06475624 -0.10986634 0.32779378 -0.054848075 0.002362471 0.28986076
-0.08963491 0.1526259 -0.05785274 0.054761633 0.08015421 0.007213249 0.031775944 -0.21377121
0.37890038 0.09295844 -0.03832471 -0.019118328 -0.07241225 -0.06907552 -0.12310284 -0.059121393
-0.3775885 -0.13110094 -0.26912755 -0.23804277 -0.11214369 -0.065963574 -0.022422861 -0.15204214
0.1720615 0.28831938 -0.22608298 0.019520596 0.21498743 0.20822844 0.107936725 0.06318182
0.22000197 0.054086596 -0.08561506 -0.14776768 0.15784791 0.2045373 0.44270232 0.012269746
0.0011675435 -0.022700645 -0.36203262 -0.14905739 0.0056881797 0.25316733 0.24178499 -0.21561125

lstm.bias_ih_l1 f4 [84]
00000000: c4d1 a93d 98a7 02bd 0d76 09be 8c34 7ebe
00000010: 2e00 ca3c a8b5 093e 37a7 87be 1185 64bc
00000020: cde7 abbd 68a1 6ebd b8fc 0abe c1c5 12be
00000030: f7e9 9fbe 3f4b 643d 95f4 213e 5b7d a2be
00000040: 6cfd f2bd c166 30be c74e 43be e05b 83be
00000050: ea57 87bd 6445 ec3d 90b1 0c3e 5511 353c
00000060: 4b98 853d efad 4e3e 11a1 42be b401 e9bd
00000070: c050 ce3d 40e2 653e cf3e c43c c302 9cbe
00000080: 6f0a a1be cd7d a2bd 8a2e 26bd 8e68 0c39
00000090: 37c6 883d 1b6f 0cbe d2d5 54be a1d7 1fbe
000000a0: 8c65 cb3c 4561 6dbd c932 32bc 4cf6 2cbd
000000b0: 7706 61bd 3bfa 793d 0d7a 8dbd dc28 c23d
000000c0: 50b9 423e 27ba 5fbe d00c 15be 651f 853d
000000d0: 2ef8 fdbd 36af 953d c971 8f3d 9110 1dbe
000000e0: b054 563e 2167 973d d7bf 2dbe 5e11 403e
000000f0: c053 0bbe a35c 653d 2577 a33d 23ee b1be
00000100: e859 803d 5915 6bbe 9ca6 b03d 3e6b a63d
00000110: 7ec1 1d3c 75ee a9be 0d08 37be e497 d6bd
00000120: 2018 eabc 15e1 aabe 7f05 9b3d d847 a3be
00000130: 1ed5 99bb 4284 31be 4905 79be ab19 3b3e
00000140: e329 14be 39e6 0d3d 637c 83be 0816 70be
0.08291963 -0.03189811 -0.13423939 -0.24824733 0.024658289 0.13448203 -0.26494762 -0.013947741
-0.08393822 -0.058259398 -0.13572967 -0.1433325 -0.3123319 0.055735823 0.15815957 -0.31736264
-0.11864743 -0.17226698 -0.1907302 -0.25656033 -0.06608565 0.11536673 0.1373961 0.011051496
0.06523188 0.20183538 -0.19006754 -0.11377278 0.100739956 0.22449589 0.02395573 -0.30470857
-0.31453273 -0.07934151 -0.040571727 0.0001339039 0.066784315 -0.13714258 -0.20784691 -0.156096
0.024828695 -0.05795409 -0.010876366 -0.042227075 -0.054937806 0.061029654 -0.06908045 0.094804496
0.19016004 -0.21848355 -0.14555669 0.06500129 -0.12400852 0.073088095 0.07004125 -0.15338351
0.20930743 0.07392717 -0.16967712 0.18756625 -0.13606167 0.05599655 0.079817094 -0.34751996
0.06267148 -0.22957362 0.08625528 0.081259236 0.009628652 -0.3318974 -0.17874165 -0.104781896
-0.028575957 -0.3337485 0.07569408 -0.3189075 -0.004694595 -0.17335609 -0.24318422 0.1827151
-0.14469104 0.034643386 -0.25680837 -0.23445904

lstm.bias_hh_l1 f4 [84]
00000000: ef3e 4ebe af2e 2dbd 715e cf3c 82bd 6bbe
00000010: cb90 af3d ff99 b73d 625f bbbe 9e83 c53d
00000020: bfaf 933c c69c 29be ffa8 383b 2fee aebe
00000030: a742 4cbb 1369 f2bd 0288 88bd 345a 8abd
00000040: a71d 333e 71e3 5a3e 156a b53c 7a57 3dbd
00000050: 3606 81be 79aa ee3d 9d9e 183d e849 3fbe
00000060: 0ecc ed3b 46a2 583e 8b6c 663e 8186 c3be
00000070: decf c83d fad5 61bc 7ab8 abbe 13ea 62be
00000080: b6b2 d1bd 0bfb 14be 5a81 26be e112 cdbd
00000090: e8e8 99bd b8c9 913d d2c4 e0bd 58e2 063e
000000a0: 3810 903d ce03 0f3d b559 7aba b1a0 e8bc
000000b0: a7b0 66bd f6c9 e23d a1d9 36be 6380 1c3e
000000c0: 8a34 f2bd 3c92 53be b424 2dbd 9e6b 97bd
000000d0: ffb7 313e df0b 993c 07ad 30bb 97f5 863d
000000e0: df68 febc 02ee acbd 846b 693e 0896 463e
000000f0: 962f d53d d4bf f03d e4e7 18be eebb d1bd
00000100: 525a 853d c667 94be 027b 923e 3838 4ebe
00000110: 73b9 213e 5263 8dbd d887 8a3d 2606 783c
00000120: 14be 91be ff6a 2ebe 440f 8ebe 31c2 c9be
00000130: 632c 24be 2d29 1dbd 4f76 e3bd eaad eb3d
00000140: 43e6 c1bd e749 95be c60a 08be 84a1 e7bd
-0.20141195 -0.04228085 0.025313588 -0.2302151 0.08572539 0.08964919 -0.3659621 0.096442446
0.018028138 -0.1656371 0.0028176901 -0.34166095 -0.0031167658 -0.118364476 -0.066665664 -0.06755486
0.1749178 0.21375825 0.02214531 -0.046226002 -0.2520005 0.11653609 0.03726064 -0.18680537
0.007256991 0.21155652 0.22502343 -0.38188556 0.098052725 -0.013783926 -0.33539182 -0.22159605
-0.102391645 -0.1454889 -0.16260281 -0.100133665 -0.075151265 0.07118553 -0.109750405 0.13172281
0.070343435 0.034915738 -0.00095501106 -0.028396936 -0.056320813 0.11073677 -0.17856456 0.1528335
-0.11826427 -0.20661253 -0.04227133 -0.07393573 0.17355345 0.018682418 -0.00269586 0.06589811
-0.031055866 -0.08443834 0.2279492 0.1939317 0.10409467 0.11755338 -0.14932209 -0.10240923
0.06511368 -0.28985423 0.28609473 -0.20138633 0.157934 -0.069037095 0.067641914 0.015138185
-0.2846533 -0.17033003 -0.27746022 -0.3940597 -0.16032557 -0.038369346 -0.1110655 0.11507781
-0.09467747 -0.29157946 -0.1328536 -0.113101035

fc.weight f4 [1, 21]
00000000: d665 0b3d c6e9 dbbd 317b b2bd ff79 a13e
00000010: 86e0 673d 6b07 87bd 0d71 29be b011 273d
00000020: 6e6e ad3d 8755 6abd 1987 883c 5509 903d
00000030: 1e7a 003b 75a8 a0bc 5d3b 61bd a1f9 58bd
00000040: 30e1 d4bd 0920 81bd d25e 37bd 4650 d83c
00000050: df9d 533c
0.034032665 -0.10737948 -0.08714903 0.31538388 0.056610607 -0.06593212 -0.16547032 0.040788352
0.084683284 -0.05721047 0.016665982 0.0703303 0.0019604038 -0.019611577 -0.054988254 -0.05297244
-0.103945136 -0.06304938 -0.044768162 0.026405465 0.012916057
