models/lstm.pth (torch, 56006 bytes, 9 tensors)

lstm.weight_ih_l0 f4 [128, 4]
0	0x3e5680d6	0.20947585
1	0xbe5099a6	-0.20371112
2	0x3e29f8e8	0.16598856
3	0xbd6b9cb0	-0.057522476
4	0x3e1c4aec	0.15262955
5	0x3e2e6d11	0.17033793
6	0xbda68b09	-0.081319876
7	0xbe7d4d44	-0.24736506
8	0x3dbb3148	0.09140259
9	0xbe4d599e	-0.20053717
10	0x3e2fb4a7	0.17158757
11	0x3d03e8f3	0.03220458
12	0xbdbcfef5	-0.09228317
13	0x3c984a58	0.018590137
14	0x3d306c23	0.043071877
15	0xbe0bfd03	-0.13670735
16	0x3e242199	0.16028441
17	0x3bd49904	0.0064879674
18	0xbe294e20	-0.16533709
19	0x3d2c5517	0.042073335
20	0x3df2211a	0.1182272
21	0x3d543ace	0.051813893
22	0xbb181593	-0.0023206219
23	0xbe7932cf	-0.24335788
24	0x3c9cc09b	0.01913481
25	0xbd42e5ed	-0.047582556
26	0xbe5ed96e	-0.2176263
27	0xbe0032de	-0.12519404
28	0x3e0c7e3a	0.13720027
29	0x3e4e0711	0.20119883
30	0xbe0195d2	-0.12654808
31	0xbda29cdb	-0.07940074
32	0xbd81cf38	-0.06338352
33	0xbd7b33e5	-0.061328787
34	0xbd9f31c5	-0.07773165
35	0xbe7ea254	-0.24866611
36	0x3c4ca789	0.012491115
37	0x3e4e29a8	0.20133078
38	0xbd9fb437	-0.07798045
39	0xbe604cf5	-0.21904357
40	0xbdd7124e	-0.10501538
41	0xbe014e66	-0.12627563
42	0x3e3233ae	0.17402527
43	0xbe459fc4	-0.19299227
44	0xbe3561ec	-0.17713135
45	0x3d53526d	0.05159228
46	0xbdf6df25	-0.1205428
47	0xbd9e903a	-0.07742353
48	0xbe23e7e7	-0.16006432
49	0xbdad9c3f	-0.08477067
50	0x3e2323fd	0.15931697
51	0xbe71c992	-0.23612049
52	0xbd9868d6	-0.07441871
53	0x3da6e894	0.081498295
54	0x3d435a4d	0.04769354
55	0xbd1de066	-0.03854408
56	0x3e84cd75	0.25938
57	0x3cfa94f1	0.030588599
58	0xbd4fa5bc	-0.050695166
59	0xbe57b7ed	-0.21066256
60	0x3e23526d	0.15949412
61	0xbc990ec7	-0.018683804
62	0xbe02d930	-0.12778163
63	0xbd9c535b	-0.07633086
64	0xbcc0e734	-0.023547746
65	0xbdd59659	-0.10429067
66	0x3e415244	0.18879038
67	0x3e24770b	0.16061036
68	0xbe1945be	-0.14968011
69	0xbdda4b29	-0.10658867
70	0x3d0606f9	0.032721493
71	0xbde9846b	-0.1140221
72	0xbc8bfc99	-0.017088221
73	0xbe03d17e	-0.12872884
74	0xbd7a567d	-0.061117638
75	0x3c993291	0.01870087
76	0x3e64b707	0.22335444
77	0x3dfd0fef	0.12356555
78	0x3db5bbe7	0.0887373
79	0xbe46adb9	-0.19402207
80	0x3ddc22d9	0.10748834
81	0xbd2a8ed4	-0.041640118
82	0x3e0e565e	0.13900134
83	0x3dd2fd01	0.10302163
84	0x3dc78d5b	0.09743758
85	0x3e072d42	0.13200858
86	0xbe3f07ce	-0.18655321
87	0xbe4047ea	-0.18777433
88	0xbe314062	-0.17309716
89	0xbe30fba8	-0.17283499
90	0xbdeb8026	-0.11499052
91	0xbcb61c38	-0.022230253
92	0xbc34cd1a	-0.011035228
93	0x3d177cec	0.03698437
94	0xbd80191c	-0.06254789
95	0xbda9b2d0	-0.08286059
96	0x3e3d21d1	0.18469931
97	0x3df38e5f	0.118923895
98	0x3dc50c0c	0.096214384
99	0xbe0df16e	-0.1386163
100	0xbe194122	-0.14966252
101	0xbe4fa1ab	-0.20276515
102	0xbe579d66	-0.21056136
103	0xbdcc8a40	-0.099873066
104	0x3e5322f4	0.20618802
105	0x3e403815	0.18771394
106	0x3e405d77	0.18785654
107	0x3e3a1111	0.18170573
108	0xbcbf5f9d	-0.023361022
109	0xbd2b43d2	-0.041812725
110	0xbcfca0f5	-0.030838469
111	0xbce41c8e	-0.027845647
112	0xbe15c167	-0.14624558
113	0xbe018e36	-0.12651905
114	0xbddfc69d	-0.10926554
115	0xbd052f06	-0.03251555
116	0x3dba9b8e	0.09111701
117	0xbe401521	-0.1875806
118	0xbe1e4681	-0.15456583
119	0x3cb5c80f	0.022190122
120	0xbe18d8a0	-0.14926386
121	0x3de7722f	0.11301076
122	0xbe07c46f	-0.13258527
123	0xbe08d544	-0.13362604
124	0x3cca0b75	0.024663666
125	0x3e3f6e83	0.186945
126	0x3d445639	0.04793379
127	0xbd961371	-0.07327927
128	0x3dc3ea2b	0.09566148
129	0xbc841f76	-0.016128283
130	0x3bf1632c	0.0073665585
131	0xbd30460c	-0.043035552
132	0x3e55fb60	0.20896673
133	0x3e4deb7f	0.20109366
134	0x3de42207	0.11139303
135	0xbe159d24	-0.14610726
136	0x3d1819f5	0.03713413
137	0x3d06efdb	0.032943588
138	0xbdfb5cde	-0.122735724
139	0x3c74a31f	0.014931469
140	0xbcb9c2bc	-0.022675864
141	0xbdc669d1	-0.09688152
142	0x3d82984a	0.06376703
143	0xbe2b9fd3	-0.16760187
144	0xbd14bac0	-0.03631091
145	0xbd9a6060	-0.07537913
146	0x3d3e03f6	0.046390496
147	0xbd42d4b3	-0.047566127
148	0x3e1fa9fa	0.15592185
149	0x3ce01b35	0.027356723
150	0x3e60208d	0.21887417
151	0xbe819fdc	-0.25317276
152	0x3dc8cf0e	0.098051175
153	0xbe2adc58	-0.16685617
154	0x3e4722d0	0.19446874
155	0x3da6380a	0.08116157
156	0xbb8c2546	-0.0042769043
157	0x3e006cec	0.1254155
158	0xbd2bd1da	-0.041948177
159	0xbe482f3d	-0.1954927
160	0x3e01d33c	0.12678236
161	0x3e025296	0.12726817
162	0xbd3a1dc1	-0.04543853
163	0x3d97b760	0.07408023
164	0x3e5f6ade	0.2181811
165	0x3e6f75ef	0.23384832
166	0xbc1d33da	-0.009594882
167	0xbc3054ff	-0.010762452
168	0x3e7b2ce6	0.24528846
169	0x3d9f9a49	0.077930994
170	0xbcca4666	-0.024691772
171	0xbe5c5234	-0.21515733
172	0xbe2b07a9	-0.16702141
173	0xbd6090a2	-0.054825433
174	0x3db7b8db	0.08970805
175	0x3ad33605	0.0016114122
176	0xbdbaf1f5	-0.09128181
177	0xbe054400	-0.13014221
178	0x3e29f63e	0.1659784
179	0x3ddf1238	0.10892147
180	0xbb5d9382	-0.0033809845
181	0xbe46affb	-0.19403069
182	0x3d993e74	0.07482615
183	0xbe3d8d52	-0.1851094
184	0x3e6a33d3	0.22871332
185	0xbe035dc8	-0.12828743
186	0xbd4921f4	-0.049104646
187	0xbe16cc5c	-0.14726394
188	0x3d692c6d	0.056927133
189	0x3e16da7e	0.14731786
190	0x3deb4c59	0.114891715
191	0x3e3dd073	0.18536548
192	0x3d6b74d4	0.057484463
193	0x3ce1773d	0.027522678
194	0xbd8e9b92	-0.069632664
195	0x3c6c71d3	0.014431435
196	0xbb256403	-0.0025236614
197	0x3e060c03	0.1309052
198	0xbd96cb48	-0.073629916
199	0xbd900854	-0.070328385
200	0xbdcfaa35	-0.10139886
201	0xbd32cedd	-0.04365431
202	0xbdddd393	-0.1083137
203	0xbd81b7f6	-0.06333916
204	0x3e6b0aff	0.22953413
205	0xbd30797d	-0.04308461
206	0xbe3d28d2	-0.18472603
207	0xbe5551d9	-0.20832004
208	0x3e851c2b	0.25998053
209	0xbc691eff	-0.014228581
210	0x3dea6efe	0.11446951
211	0x3dab97bb	0.0837855
212	0xbda09867	-0.078415684
213	0xbd623dbd	-0.05523466
214	0xbd7e7f76	-0.062133275
215	0xbe718bb9	-0.23588456
216	0xbe11e052	-0.14245728
217	0xbd9e3439	-0.077248044
218	0x3db5b983	0.08873274
219	0xbd5610c3	-0.05226208
220	0x3d7415a2	0.059590943
221	0xbd7757ed	-0.060386587
222	0xbd55ae74	-0.052168325
223	0xbe0b773c	-0.13619703
224	0x3b4ecc2c	0.0031554801
225	0x3e56fd65	0.209951
226	0x3d153218	0.036424726
227	0xbdabd4b3	-0.083901785
228	0x3e281b66	0.16416702
229	0xbdb8846c	-0.090096325
230	0x3cabc72f	0.020969002
231	0xbe4092b1	-0.18805958
232	0x3e381883	0.179781
233	0x3e23f121	0.16009952
234	0x3e3a767b	0.18209259
235	0xbe4548a6	-0.19265994
236	0xbe0ab44f	-0.13545345
237	0xbd8fdae9	-0.07024176
238	0xbde2ef89	-0.11080844
239	0x3c9cea6f	0.019154755
240	0xbccdc139	-0.02511655
241	0xbdbbe07a	-0.09173675
242	0xbe01e671	-0.12685563
243	0xbdf1671a	-0.11787243
244	0x3dc14c3e	0.0943837
245	0xbe422bb0	-0.18961978
246	0x3e3b6490	0.1830008
247	0x3cfb6361	0.030687036
248	0x3d8a509e	0.06753658
249	0x3e069f3c	0.1314668
250	0x3e420113	0.18945722
251	0xbda3b07b	-0.07992645
252	0x3d4171e8	0.04722777
253	0x3de6bb31	0.11266173
254	0xbe2cce70	-0.16875625
255	0xbe504748	-0.20339692

lstm.weight_hh_l0 f4 [128, 32]
0	0x3db58bd6	0.08864562
1	0xbe5de7a9	-0.21670403
2	0x3e2a7b85	0.16648681
3	0x3c5dff70	0.013549671
4	0x3d71e073	0.059051942
5	0xbd38ad2d	-0.04508703
6	0xbde70b8d	-0.112815
7	0x3da0f4ae	0.07859169
8	0x3db70dfc	0.08938214
9	0x3d810b0d	0.06300936
10	0x3c8189da	0.015812803
11	0xbe36a34d	-0.17835732
12	0xbe55b25c	-0.2086882
13	0x3d00bb76	0.031428777
14	0xbe002650	-0.12514615
15	0xbe473d67	-0.19457017
16	0x3e281912	0.16415814
17	0xbd2c8286	-0.042116664
18	0xbe00971f	-0.12557648
19	0x3dbd84e2	0.09253861
20	0xbd497ecb	-0.049193185
21	0x3e87628c	0.26442373
22	0x3dd0df5c	0.101988524
23	0x3e375df9	0.17906941
24	0xbdd80704	-0.10548213
25	0x3e1716b0	0.14754748
26	0x3d86a85c	0.06575081
27	0x3e1f20dd	0.1553988
28	0x3b4081a7	0.0029374154
29	0x3d987884	0.074448615
30	0x3e50f97e	0.20407674
31	0x3d326015	0.043548662
32	0x3e0abb95	0.1354812
33	0x3dcba5df	0.09943747
34	0x3df4750a	0.11936386
35	0x3ce7681a	0.028247882
36	0x3ded93cb	0.11600455
37	0xbd01a7a6	-0.031654023
38	0x3cd17fcf	0.02557364
39	0xbde39c6e	-0.11113821
40	0x3bf2c78f	0.007409043
41	0xbe6eff92	-0.2333968
42	0xbe6a7d5f	-0.22899388
43	0xbdfbfa3c	-0.12303588
44	0xbd89dc4c	-0.067314714
45	0x3cc6c5b5	0.024264196
46	0x3cd1d300	0.025613308
47	0xbd818b65	-0.063254155
48	0xbccce4e9	-0.025011497
49	0xbe10a52c	-0.14125508
50	0xbe5aa756	-0.21352896
51	0x3e2be7b7	0.16787611
52	0x3da0891f	0.07838654
53	0x3da6695b	0.08125564
54	0xbdbb8cd3	-0.091577195
55	0xbad68d7c	-0.001636907
56	0xbe506736	-0.20351872
57	0xbd585baa	-0.052821793
58	0xbe0148ce	-0.12625429
59	0x3d2768e2	0.04087151
60	0xbc06a318	-0.0082175955
61	0xbccb964f	-0.024851946
62	0xbd5349b7	-0.05158397
63	0xbbc099f4	-0.0058777276
64	0x3c281197	0.0102581
65	0x3d9a8232	0.07544364
66	0xbcd32929	-0.025776463
67	0x3e0728b8	0.13199127
68	0xbe2d0861	-0.16897728
69	0xbd0fb8bf	-0.035088297
70	0x3dc2d5d2	0.09513439
71	0x3d3e8c35	0.04652043
72	0xbd8376b1	-0.06419123
73	0x3d77ef76	0.060531102
74	0x3ca519e9	0.020153956
75	0x3aa6148a	0.0012670916
76	0xbd857ab6	-0.06517546
77	0x3c0ed07e	0.008716701
78	0x3d8206a3	0.06348922
79	0x3c57de0e	0.013175501
80	0xbd7ba4d2	-0.06143648
81	0x3e2e3775	0.17013343
82	0x3dd4669d	0.103711344
83	0x3d1000b0	0.035156906
84	0xbdb825d0	-0.08991587
85	0x3e12638d	0.14295788
86	0xbc91c01e	-0.017791804
87	0x39bd4654	0.00036101288
88	0x3e0595cc	0.13045424
89	0x3d0ed39d	0.03486978
90	0x3cff7b38	0.031186685
91	0x3db2bd40	0.08727503
92	0x3e2e3234	0.17011338
93	0xbd9a0469	-0.075203724
94	0xbb53ded2	-0.0032328856
95	0x3e45cb1b	0.1931576
96	0xbd5436c0	-0.051810026
97	0xba833de9	-0.0010012958
98	0x3e529774	0.20565587
99	0xbde318a8	-0.11088687
100	0xbe00bc21	-0.12571765
101	0x39cdc565	0.00039247717
102	0x3c5e9dae	0.013587398
103	0xbb22bb6b	-0.0024830948
104	0xbd8b15b4	-0.06791249
105	0xbce48fb9	-0.027900564
106	0xbde412e3	-0.11136415
107	0xbddccf79	-0.1078176
108	0x3d3e3900	0.04644108
109	0xbc3a9afb	-0.011389489
110	0xbde62276	-0.11237042
111	0xbd8a3059	-0.06747503
112	0x3e35600d	0.17712422
113	0x3d65e821	0.05612958
114	0xbdf979a1	-0.12181402
115	0xbe0f37c5	-0.13986118
116	0xbb0a90ce	-0.002114344
117	0xbdda2b66	-0.10652809
118	0x3d85d3d4	0.06534544
119	0x3d8ba67d	0.068188645
120	0x3dd9a498	0.10627097
121	0x3dd528e7	0.10408192
122	0xbd06146c	-0.03273432
123	0x3e61174b	0.21981542
124	0x3cc1fe36	0.023680788
125	0xbe6262bb	-0.22107975
126	0xbbf44d5a	-0.00745551
127	0x3ca45606	0.02006055
128	0xbe2556ce	-0.16146395
129	0xbccd0f2b	-0.025031647
130	0x3dc03700	0.093854904
131	0x3c43b7e2	0.011945697
132	0xbe01a006	-0.126587
133	0xbb6b7482	-0.0035927598
134	0xbdeb6bc5	-0.11495165
135	0x3dbbc822	0.09169032
136	0x3e34265b	0.17592756
137	0xbd9e1e04	-0.07720569
138	0xbc1ceff7	-0.009578696
139	0x3db74850	0.089493394
140	0xbd07d653	-0.03316338
141	0xbe3c187b	-0.18368714
142	0xbde60130	-0.11230695
143	0x3d0e5f3c	0.03475879
144	0xbaa68bc2	-0.0012706446
145	0x3daa6694	0.083203465
146	0x3e022914	0.12710983
147	0xbda0d2d7	-0.078527145
148	0x3da17ec6	0.07885508
149	0xbd0e7666	-0.034780882
150	0x3e0b7a11	0.13620783
151	0xbe01b45f	-0.12666462
152	0xbcd4140e	-0.02588847
153	0x3e1b11d2	0.15143517
154	0x3e5b18cb	0.21396177
155	0x3e6de553	0.23232011
156	0xbcde503f	-0.027137874
157	0xbc27b3c6	-0.010235732
158	0x3d4f02e2	0.05053986
159	0xbe1582f2	-0.14600733
160	0xbe11f235	-0.14252551
161	0xbe1312be	-0.14362618
162	0x3d8e1871	0.069382556
163	0x3dd5bce1	0.104364164
164	0xbd3473e7	-0.044055846
165	0xbd4236e2	-0.04741562
166	0xbc6681e1	-0.0140690515
167	0x3d03eaf1	0.03220648
168	0xbdb7de55	-0.08977953
169	0xbe3a6f70	-0.18206573
170	0xbdf80ee9	-0.12112219
171	0x3d889a43	0.06670048
172	0x3ce0791b	0.027401498
173	0x3db323a0	0.08747029
174	0xbb8dd820	-0.0043287426
175	0xbca04535	-0.01956425
176	0x3e062c8a	0.13102928
177	0x3e1289cb	0.14310376
178	0x3db74fe8	0.08950788
179	0xbc8f9172	-0.017525408
180	0xbb40c808	-0.0029416103
181	0x3e897010	0.2684331
182	0x3c40a8c7	0.01175899
183	0x3d5df3dd	0.054187644
184	0xbe1af2da	-0.15131703
185	0xbdc937db	-0.09825107
186	0x3e557de4	0.20848805
187	0x3e0b4966	0.13602218
188	0xbe272c90	-0.16325593
189	0xbe66db98	-0.22544706
190	0xbc82ef0d	-0.015983129
191	0x3d99de23	0.07513072
192	0x3d26f970	0.040765226
193	0x3dd3a1ea	0.10333617
194	0xbdd9862b	-0.10621294
195	0x3e57d8d8	0.21078813
196	0x3e01a651	0.12661101
197	0xbd37c88c	-0.04486899
198	0xbe15f400	-0.1464386
199	0xbd6f3c30	-0.05840701
200	0x3e5718d9	0.21005572
201	0x3d49e2fb	0.04928873
202	0x3e1923ed	0.14955111
203	0xbe59af2b	-0.21258228
204	0xbd35c4ff	-0.044377323
205	0x3dbc5f6c	0.09197888
206	0x3a0eb397	0.0005443631
207	0xbe136ac8	-0.14396203
208	0x3cd7b555	0.026331583
209	0x3e1f09a3	0.1553102
210	0xbda3c5ab	-0.079966865
211	0x3de459aa	0.111499146
212	0x3e26c1c7	0.16284858
213	0xbe2f19e7	-0.17099725
214	0xbdbb7194	-0.09152523
215	0xbe67321e	-0.22577712
216	0xbe6fbc70	-0.23411727
217	0x3e346693	0.17617254
218	0xbdad3f51	-0.08459342
219	0x3e0869cc	0.13321608
220	0x3e1e92fe	0.1548576
221	0xbd8d6f4f	-0.06905996
222	0x3d8e6655	0.06953112
223	0xbcac96cd	-0.021068001
224	0x3e1a491f	0.15066956
225	0xbd544503	-0.051823627
226	0x3e0374af	0.1283748
227	0x3df07f18	0.11742991
228	0xbe2f9dc1	-0.17150022
229	0xbd875d44	-0.06609586
230	0x3cad595a	0.02116077
231	0x3e23f903	0.16012959
232	0x3dcc159c	0.09965059
233	0x3de2d5be	0.11075924
234	0xbcfb6249	-0.030686514
235	0xbcb3ccff	-0.021948336
236	0xbe014ef7	-0.12627779
237	0xba20d6bb	-0.0006135513
238	0x3e19f99e	0.15036628
239	0xbdb20dd4	-0.08694044
240	0xbe0bf6fe	-0.13668439
241	0xbd199b64	-0.037501708
242	0x3d8def84	0.069304496
243	0xbe043941	-0.12912466
244	0x3d88eac1	0.06685401
245	0x3e317073	0.17328052
246	0xbcbaef0d	-0.022819066
247	0xbe86534d	-0.26235428
248	0x3d84dc22	0.064872995
249	0x3dd14716	0.10218637
250	0xbe1f11f5	-0.15534194
251	0x3d245a29	0.040125046
252	0x3ba7d887	0.0051222476
253	0xbc9c6ee0	-0.019095838
254	0xbdfd0474	-0.12354365
255	0x3e16030e	0.14649603

lstm.bias_ih_l0 f4 [128]
0	0x3d8fc1cf	0.07019388
1	0xbda714a7	-0.08158236
2	0xbdb7525b	-0.08951255
3	0x3c52a00b	0.01285554
4	0xbca30712	-0.019900832
5	0x3d507d44	0.050900713
6	0x3da8bc36	0.082390234
7	0xbdf1973e	-0.11796425
8	0xbd92e85a	-0.07173224
9	0xbd21532f	-0.03938597
10	0xbd908bfe	-0.070579514
11	0x3d9a46fb	0.0753307
12	0x3cdddca6	0.027082752
13	0x3d5668e8	0.05234614
14	0xbc312de8	-0.010814168
15	0x3e48cef5	0.19610198
16	0xbdd29f8f	-0.1028434
17	0xbdbcec99	-0.09224815
18	0xbdec32c2	-0.11533119
19	0x3dfc9db4	0.12334767
20	0xbd988361	-0.074469335
21	0x3da18758	0.07887143
22	0xbd5b7ec8	-0.053587705
23	0xbd303a3e	-0.043024294
24	0xbe1747e9	-0.14773525
25	0xbce3889c	-0.027775101
26	0x3dda67fb	0.10664364
27	0xbdb4ebbc	-0.08834025
28	0x3d1ae4e9	0.037815962
29	0x3d61a904	0.055092826
30	0x3d678ee5	0.05653276
31	0xbcdbf0a7	-0.02684815
32	0xbd9dad45	-0.07699064
33	0x3e03f478	0.12886226
34	0x3d97f33f	0.074194424
35	0x3d63809d	0.055542577
36	0x3e10ff4b	0.14159887
37	0x3e2b209b	0.16711657
38	0x3de8fcb4	0.11376324
39	0x3dba1548	0.0908609
40	0xbda0a4d1	-0.07843936
41	0x3e37fe29	0.17968048
42	0x3d0b27a3	0.033973347
43	0x3e228660	0.15871572
44	0xbd703ba8	-0.058650643
45	0xbd7951eb	-0.06086914
46	0xbd6d57e1	-0.057945136
47	0x3cb441f5	0.022004107
48	0x3d6b45c4	0.05743958
49	0x3c510e5c	0.012759771
50	0x3e5a6404	0.21327215
51	0xbdacf288	-0.08444697
52	0x3d831618	0.064006984
53	0x3e725499	0.23665084
54	0x3ce7c7cd	0.028293515
55	0xbce04837	-0.027378185
56	0x3d2ccf3f	0.042189833
57	0xbde6550b	-0.112466894
58	0xbd6b096f	-0.057382043
59	0xbd87338d	-0.066016294
60	0x3e48951c	0.1958813
61	0x3df1fa37	0.11815303
62	0xbd77d3da	-0.06050477
63	0x3e27a195	0.16370232
64	0xbe0f9b80	-0.14024162
65	0xbe053e2a	-0.13011995
66	0x3c295bd7	0.010336838
67	0xbc4a0cb5	-0.012332131
68	0x3dbf0732	0.09327544
69	0x3e0de62b	0.13857333
70	0x3e5f2bc4	0.21794039
71	0xbcaf3301	-0.021386625
72	0x3e18ada1	0.14909984
73	0x3b7f175a	0.003892383
74	0xbde9270a	-0.11384399
75	0xbd7c6a6e	-0.061624937
76	0x3c186892	0.009302275
77	0x3def9275	0.11697856
78	0x3e2773e3	0.16352801
79	0xbe1d331b	-0.15351526
80	0x3e4cbe2c	0.1999442
81	0x3de7bdfc	0.113155335
82	0x3c26bbdf	0.010176628
83	0xbe597d83	-0.21239285
84	0x3a5b9b15	0.0008377296
85	0x3cb80887	0.022465004
86	0xbddb5caf	-0.10711037
87	0xbdfd2980	-0.12361431
88	0xbe27a142	-0.16370109
89	0x3c9c6b61	0.019094171
90	0x3c8d7357	0.017266912
91	0x3e26705e	0.16253802
92	0x3df728f1	0.12068356
93	0xbd460882	-0.048347957
94	0x3d20c504	0.03925039
95	0x3e3efd31	0.18651272
96	0x3e16e3e0	0.14735365
97	0x3d8835e4	0.06650904
98	0x3e1b943f	0.1519327
99	0xbd54f166	-0.051988028
100	0x3d9f439d	0.07776568
101	0x3d96e76c	0.07368359
102	0x3e36b725	0.17843302
103	0x3aabb434	0.0013099969
104	0xbe15a0d4	-0.14612132
105	0x3ccb0cd8	0.024786398
106	0x3d439eb0	0.047758758
107	0x3d6cbab2	0.057795234
108	0xbe199c1b	-0.15000956
109	0xbd226306	-0.039645217
110	0x3e2eb9a7	0.17063008
111	0x3e20b2eb	0.15693252
112	0x3da6df2a	0.08148034
113	0x3ca2cd69	0.019873338
114	0x3e58fbb8	0.21189773
115	0xbdbd0544	-0.0922952
116	0x3d2fc8bb	0.04291604
117	0x3e73db4c	0.23814124
118	0x3e4b90fa	0.19879523
119	0x3d796690	0.060888827
120	0x3d1cf7df	0.038322326
121	0xbdb560c9	-0.08856351
122	0x3d69fcad	0.057125736
123	0x3dd67cf7	0.10473054
124	0x3d97925b	0.07400962
125	0xbc9d77b1	-0.019222112
126	0xbe14af78	-0.14520061
127	0x3d98474f	0.07435476

lstm.bias_hh_l0 f4 [128]
0	0xbdc1649c	-0.09443018
1	0x3dc8246f	0.09772574
2	0xbdde8092	-0.108643666
3	0x3e2b2250	0.16712308
4	0xbddbff28	-0.107420266
5	0x3d947b51	0.07250083
6	0x3de74c62	0.11293866
7	0x3e3e5758	0.18588006
8	0x3e32349b	0.1740288
9	0x3cf34dca	0.029700179
10	0x3e33a85b	0.17544691
11	0xbcc76921	-0.024342122
12	0x3e07839a	0.13233796
13	0x3e636d1d	0.22209592
14	0xbc87ebbd	-0.016591901
15	0x3dc61ae7	0.096731
16	0xbb112527	-0.0022147389
17	0x3db56c4a	0.08858545
18	0x3e503879	0.20334043
19	0xbde107b3	-0.10987797
20	0xbd85b0bf	-0.06527852
21	0xbdcee1a6	-0.10101633
22	0xbdc492fc	-0.095983475
23	0x3e6c0838	0.2305001
24	0x3dc18be4	0.0945051
25	0xbd825366	-0.06363563
26	0x3dde6e2d	0.10860858
27	0x3e2c1653	0.16805391
28	0xbd85c420	-0.065315485
29	0x3df7c3b9	0.12097878
30	0xbd828bd3	-0.063743256
31	0x3dce1254	0.100620896
32	0xbde510fa	-0.11184879
33	0xbcf20034	-0.029541112
34	0x3d9c70b3	0.07638683
35	0xbd9562bd	-0.072942235
36	0xbd11b040	-0.035568476
37	0x3e0903fe	0.13380429
38	0xbd58aec0	-0.05290103
39	0x3e2f884f	0.17141841
40	0x3d733ade	0.059382312
41	0x3ddf636f	0.10907637
42	0x3e14861c	0.14504284
43	0xbd50f664	-0.051016226
44	0xbdfc49ce	-0.123187646
45	0xbd765845	-0.060142774
46	0xbd96a76f	-0.07356154
47	0xbd85b81b	-0.06529256
48	0x3dd8ec28	0.10591918
49	0xbe0514a6	-0.12996158
50	0xbd97db4b	-0.07414874
51	0x3e0225d5	0.12709744
52	0x3c984895	0.018589297
53	0x3e11c744	0.1423617
54	0x3d88a65b	0.06672355
55	0x3de6d83f	0.112717144
56	0xbdf9fcb3	-0.12206402
57	0x3ddd2a11	0.10799039
58	0x3dc2fd39	0.09520955
59	0xbd8a52e7	-0.067540936
60	0x3dd7ef3e	0.10543679
61	0x3e3e94ca	0.18611446
62	0x3ccd1c03	0.025037771
63	0x3dc77ba7	0.09740382
64	0xbc904ae0	-0.017613828
65	0x3d0b21ef	0.03396791
66	0xbdb82be4	-0.089927465
67	0x3da690a7	0.08133059
68	0xbdef1bf6	-0.11675255
69	0xbdca132e	-0.098669395
70	0x3e488478	0.19581783
71	0x3e27dbd4	0.16392452
72	0x3e2b2bae	0.16715881
73	0xbdad825a	-0.08472128
74	0x3e1b8e0f	0.1519091
75	0xbe2f8533	-0.17140655
76	0xbdd8da6d	-0.105885364
77	0x3d3df630	0.04637736
78	0x3dfd9b91	0.123831876
79	0xbe4255b9	-0.18978013
80	0x3e2e4f36	0.17022404
81	0x3d0d8ec1	0.03455997
82	0x3d874866	0.06605606
83	0xbd3fabd5	-0.04679473
84	0x3e1d6b5b	0.15372984
85	0x3b1bca0b	0.002377155
86	0x3aa2af56	0.0012411873
87	0xbdb209d7	-0.08693283
88	0xbdec2c4e	-0.11531888
89	0x3e12b592	0.14327076
90	0xbd72e7ef	-0.05930322
91	0xbd0e76fb	-0.034781437
92	0x3d4addf7	0.04952809
93	0xbe13d87b	-0.1443805
94	0x3dd334b7	0.10312789
95	0x3e1180a8	0.14209235
96	0x3e46cd6b	0.19414298
97	0x3d7a28cb	0.06107406
98	0xbd85e3d2	-0.06537594
99	0x3e418213	0.18897276
100	0x3e20db91	0.15708758
101	0x3e6e8a04	0.23294836
102	0xbdbed36b	-0.093176685
103	0xbd8eea40	-0.069782734
104	0xbe1bf00a	-0.15228286
105	0xbd8ed37d	-0.06973932
106	0x3e515b2f	0.2044494
107	0xbe1948b6	-0.14969143
108	0x3dc08f87	0.09402376
109	0x3d50d95a	0.050988533
110	0x3e727b7f	0.23679923
111	0x3e42d6eb	0.19027297
112	0x3dc06cbe	0.09395741
113	0xbd84941a	-0.06473561
114	0x3e0c2f5e	0.13689944
115	0x3e204465	0.1565109
116	0x3ba76808	0.005108837
117	0xbdabfb00	-0.08397484
118	0x3d7149b7	0.05890819
119	0x3d362b5d	0.04447495
120	0xbd84f4fe	-0.06492041
121	0x3da0393b	0.07823416
122	0x3e34e6c6	0.17666158
123	0xbe0feb94	-0.1405471
124	0x3e1337f4	0.14376813
125	0x3ce6619a	0.028122712
126	0x3c363c5d	0.01112279
127	0x3e661cdd	0.22471948

lstm.weight_ih_l1 f4 [128, 32]
0	0xbd65c206	-0.05609324
1	0xbdb159c7	-0.08659702
2	0xbd47e386	-0.048800968
3	0xbc7d703e	-0.015468655
4	0xbe1720cd	-0.14758606
5	0xbe037c59	-0.12840404
6	0x3ddd8506	0.10816388
7	0xbdf75e1c	-0.12078497
8	0xbc6cd5a4	-0.014455233
9	0x3dce21eb	0.10065063
10	0xbcf02696	-0.029315274
11	0xbdb62244	-0.088932544
12	0xbd8c6b2c	-0.06856379
13	0xbd2a69ce	-0.04160481
14	0xbdb86758	-0.09004086
15	0xbe38ce2f	-0.18047403
16	0x3c96f7ac	0.018428646
17	0x3d4b0abc	0.049570784
18	0x3dd7cfcb	0.1053768
19	0xbd7fc5b9	-0.062444422
20	0xbdb4aa62	-0.088215604
21	0x3d69d68d	0.057089377
22	0xbe403a16	-0.18772158
23	0xbd2d3d25	-0.04229464
24	0x3d92c9c0	0.07167387
25	0xbbfb3742	-0.0076664994
26	0x3dc36fa4	0.09542778
27	0xbe0811cd	-0.1328804
28	0xbd5d609e	-0.05404722
29	0x3d8cd752	0.068770066
30	0x3e5afe3c	0.21386045
31	0x3e21f46a	0.15815893
32	0x3c9119be	0.01771247
33	0xbe22fc04	-0.15916449
34	0xbd115016	-0.035476767
35	0xbe1585e4	-0.14601856
36	0xbe0eb38f	-0.13935684
37	0xbd90955b	-0.07059737
38	0xbd78634c	-0.060641572
39	0x3e20977b	0.15682785
40	0xbe1af91b	-0.15134089
41	0x3dbeb895	0.0931255
42	0x3d88abb7	0.06673377
43	0xbe0037f7	-0.12521349
44	0xbc908721	-0.01764256
45	0xbdf9522c	-0.12173876
46	0x3d61d513	0.055134844
47	0x3d36de46	0.04464557
48	0xbdc7d6b9	-0.09757752
49	0x3e0b7a3f	0.13620852
50	0xbdf5bca9	-0.11998875
51	0xbd30ae56	-0.04313501
52	0x3bd668c3	0.0065432503
53	0xbe153e9a	-0.14574662
54	0xbd181153	-0.037125897
55	0xbe343d03	-0.17601399
56	0x3c7ef09c	0.015560295
57	0x3c03f844	0.008054797
58	0xbe137810	-0.14401269
59	0x3e130d63	0.14360575
60	0xbc1dc22b	-0.009628813
61	0x3e22db0b	0.15903871
62	0x3c92d279	0.017922627
63	0xbd5af656	-0.05345758
64	0xbe08f22d	-0.13373633
65	0xbcd466d2	-0.025927935
66	0xbd321373	-0.04347558
67	0x3d3bd491	0.045857016
68	0xbd269c31	-0.0406763
69	0xbdbb90d2	-0.09158482
70	0x3d9eb992	0.077502385
71	0x3e44fcd8	0.19237077
72	0x3aaf2ce9	0.0013364825
73	0x3d078993	0.033090185
74	0xbdf4449f	-0.11927151
75	0xbe138016	-0.1440433
76	0xbe38404c	-0.17993277
77	0xbd7c115c	-0.061539993
78	0x3e120e7b	0.14263336
79	0x3e06265e	0.13100573
80	0x3e508275	0.20362265
81	0x3ce04f2a	0.027381498
82	0xbde612f2	-0.11234082
83	0xbd83b594	-0.06431118
84	0x3dcaa30c	0.0989438
85	0x3d9472c0	0.07248449
86	0xbd6ea93c	-0.058266863
87	0xbe0a98a7	-0.13534795
88	0xbe2d8267	-0.16944276
89	0x3d90d9e2	0.07072808
90	0x3cf6a820	0.030109465
91	0xbddc533d	-0.10758064
92	0x3d11a8a9	0.035561237
93	0x3c98664c	0.018603466
94	0xbdcc8628	-0.09986526
95	0x3e64f79c	0.2236008
96	0xbde3580d	-0.11100779
97	0x3d3622bb	0.044466715
98	0xbc86ba8a	-0.01644637
99	0xbd8564c8	-0.06513363
100	0xbdd69a71	-0.10478676
101	0xbd23d2b4	-0.039995864
102	0xbc17031d	-0.009217051
103	0x3dfd5e60	0.12371516
104	0xbdf79ee2	-0.12090851
105	0xbe1ff576	-0.1562098
106	0xbd9d09e2	-0.076679006
107	0xbe33571a	-0.17513695
108	0xbdfb9368	-0.12283975
109	0xbe456a3c	-0.19278806
110	0x3d8706c8	0.0659309
111	0xbde759a5	-0.11296395
112	0x3e034a66	0.1282135
113	0x3e340be4	0.17582661
114	0xbe2acee7	-0.1668049
115	0x3e171da4	0.14757401
116	0x3d26748e	0.0406385
117	0x3e489d23	0.19591193
118	0x3d0c2edc	0.034224376
119	0x3d172670	0.03690189
120	0xbd7f5751	-0.06233913
121	0x3da6f227	0.08151656
122	0x3c633de4	0.013869736
123	0x3db31c8c	0.08745679
124	0xbc7fb959	-0.015608155
125	0xbe30b1c8	-0.17255318
126	0x3e49f619	0.19722785
127	0xbe07bf28	-0.13256514
128	0x3e32c58a	0.17458168
129	0xbe1cb865	-0.15304716
130	0x3d833ef1	0.064084895
131	0x3e0a8f63	0.1353126
132	0xbe3b1bbe	-0.18272302
133	0xbe0b67c3	-0.136138
134	0x3e1302e0	0.14356565
135	0xbdc9d8e9	-0.098558255
136	0x3def9b8e	0.116995916
137	0x3d94e5ec	0.072704166
138	0xbe1525c6	-0.1456519
139	0xbdd7226f	-0.105046146
140	0xbe352175	-0.17688544
141	0xbda4d216	-0.08047883
142	0xbdc21873	-0.094773196
143	0x3dd63c3c	0.104607075
144	0xbe0da334	-0.13831788
145	0xbe2ac174	-0.16675359
146	0xbbe97b6e	-0.0071253097
147	0xbd00613f	-0.03134274
148	0x3e345a62	0.17612603
149	0x3e385ee9	0.18004955
150	0x3cc310f7	0.0238118
151	0x3daaceb5	0.083402075
152	0x3e2c6e31	0.1683891
153	0x3d66ae3b	0.056318503
154	0x3e0fdab7	0.14048277
155	0x3e26142b	0.16218631
156	0xbe4a5fd0	-0.19763112
157	0x3daf34f9	0.085550256
158	0x3dbc39ba	0.09190698
159	0xbca52982	-0.020161394
160	0x3d43e652	0.047827072
161	0x3ddc945b	0.10770484
162	0xbca12890	-0.019672662
163	0xbdcde6d2	-0.10053791
164	0xbd06fdf0	-0.032957017
165	0x3de2cd2c	0.1107429
166	0x3de62851	0.112381585
167	0xbc397dfd	-0.011321542
168	0x3ad6f94d	0.0016401202
169	0xbc80ca69	-0.015721517
170	0xbd289950	-0.041161835
171	0x3bd1235f	0.0063823904
172	0x3ce3fba9	0.027829962
173	0xbb19660c	-0.0023406772
174	0xbd993ee5	-0.07482699
175	0xbe15283f	-0.14566134
176	0xbce357c1	-0.027751805
177	0x3e5146d9	0.20437182
178	0xbd0c291f	-0.034218904
179	0xbd437dcc	-0.04772739
180	0xbbdc36d5	-0.0067204037
181	0xbd86fad9	-0.06590814
182	0x3d0e08bb	0.034676295
183	0xbe2e1f7c	-0.17004198
184	0x3c396905	0.0113165425
185	0x3e1d361a	0.1535267
186	0xbdcac2c8	-0.09900433
187	0x3e5832f0	0.21113181
188	0xbe32b299	-0.17450942
189	0x3de45c2a	0.111503914
190	0x3e0cee67	0.13762818
191	0x3c904815	0.017612496
192	0xbe690e40	-0.22759342
193	0xbcd50d8c	-0.026007436
194	0xbd66b077	-0.056320634
195	0x3d726f49	0.05918816
196	0x3e2c4ee9	0.16826977
197	0x3e3787c9	0.17922892
198	0x3e2bf8a5	0.16794069
199	0xbd914be8	-0.07094556
200	0x3e47c226	0.19507656
201	0x3da5b0cf	0.08090364
202	0xbda07ad7	-0.0783593
203	0x3a3e1d42	0.00072522846
204	0xbe05b407	-0.13056956
205	0xbdb00fb3	-0.085967444
206	0x3d9d5d3d	0.076837994
207	0x3d6cb4c9	0.057789598
208	0xbdb00493	-0.085946225
209	0x3cbc0e6b	0.022956094
210	0x3c488df1	0.012240873
211	0xbded62f2	-0.11591138
212	0x3e02fb81	0.12791254
213	0xbde9396d	-0.11387906
214	0x3dbdbd5f	0.09264635
215	0xbe3757ec	-0.17904633
216	0xbcc5c7c8	-0.024143115
217	0x3d70fa3e	0.0588324
218	0x3c968d96	0.01837806
219	0x3dca5560	0.09879565
220	0xbda6fc20	-0.08153558
221	0x3dbc6869	0.09199602
222	0xbdddc184	-0.10827926
223	0x3d5d12fa	0.053973176
224	0xbdef078c	-0.11671361
225	0x3d4c40b9	0.04986641
226	0xbd358071	-0.044311944
227	0x3df4a352	0.119452134
228	0x3dc65891	0.096848615
229	0x3d4e4943	0.050362837
230	0x3e4c2aed	0.1993825
231	0x3de7ca29	0.11317856
232	0x3e1bba27	0.1520773
233	0x3ded8b96	0.115988895
234	0x3ce025d5	0.02736179
235	0xbc9f5bb6	-0.01945291
236	0xbd526d81	-0.051373962
237	0x3e2efb18	0.17087972
238	0x3d9701ba	0.07373376
239	0xbaff216c	-0.0019464917
240	0x3e4d2ff6	0.20037827
241	0xbd013115	-0.03154095
242	0xbe014ded	-0.12627383
243	0xbe2f55d5	-0.17122586
244	0x3d1862ad	0.03720348
245	0x3e1b2e05	0.15154274
246	0xbd916644	-0.07099584
247	0xbdb75656	-0.08952014
248	0x3ca58c38	0.020208463
249	0x3d662a73	0.056192826
250	0x3db5fac5	0.08885721
251	0xbcca1884	-0.024669893
252	0xbe0184b2	-0.12648275
253	0x3cb9a971	0.022663804
254	0xbd52aabc	-0.051432356
255	0x3d696102	0.05697728

lstm.weight_hh_l1 f4 [128, 32]
0	0xbe070192	-0.13184193
1	0xbe0fa6da	-0.14028493
2	0xbdd878e1	-0.10569931
3	0x3c00d197	0.00786247
4	0x3e08138e	0.1328871
5	0x3d3972ed	0.045275617
6	0x3d64b25f	0.05583417
7	0xbdfae1b4	-0.12250081
8	0x3dae619c	0.08514711
9	0x3cc2ea52	0.023793373
10	0x3c7f82fd	0.015595195
11	0xbe0e78fc	-0.1391334
12	0xbe3fb0ab	-0.18719737
13	0xbdc179cf	-0.09447061
14	0xbcd04b83	-0.025426632
15	0xbda6bb21	-0.08141161
16	0xbe3a0ee2	-0.1816974
17	0x3e466e95	0.19378121
18	0x3dc5b37e	0.09653376
19	0xbd4ac049	-0.049499784
20	0xbdd19e2e	-0.102352485
21	0xbe410528	-0.18849623
22	0xbe0d5210	-0.13800836
23	0xbc8a4f63	-0.016883558
24	0x3e227962	0.15866616
25	0x3c7a3768	0.015271999
26	0xbd212f87	-0.039351966
27	0xbd8bf976	-0.0683469
28	0x3d81cd1d	0.063379504
29	0x3e45fa29	0.1933371
30	0xbc928f22	-0.017890517
31	0xbe616178	-0.22009838
32	0x3e011f4e	0.12609598
33	0x3df06040	0.11737108
34	0xbc1d5a5d	-0.009604064
35	0xbdd1f13d	-0.10251091
36	0xbd2e02eb	-0.04248325
37	0x3da6a4d1	0.08136905
38	0x3db3393b	0.0875115
39	0xbdcfb3f0	-0.10141742
40	0x3d4b0ec6	0.049574636
41	0x3d9c7e3b	0.07641264
42	0xbd87c742	-0.06629802
43	0xbe06f4e2	-0.13179353
44	0x3c0b989f	0.008520274
45	0x3ddbc076	0.107300684
46	0x3e29af41	0.1657076
47	0x3bd95387	0.0066322717
48	0x3c8ac185	0.01693798
49	0x3d5b032b	0.053469818
50	0x3dbb5ebd	0.09148929
51	0x3d984a4a	0.074360445
52	0xbddb82e7	-0.10718327
53	0x3decbc24	0.115593225
54	0x3d5c83c5	0.053836603
55	0x3e34e155	0.17664082
56	0xbe025d0d	-0.12730809
57	0x3e32bccc	0.17454833
58	0x3db270f6	0.08712952
59	0xbdbe485b	-0.092911445
60	0xbe445cfa	-0.19176093
61	0x3d4322f3	0.047640752
62	0x3e0e1b9d	0.13877721
63	0xbe0d60ff	-0.13806532
64	0x3da2c509	0.07947738
65	0x3c8786f3	0.016543841
66	0x3df79388	0.12088686
67	0x3e01530d	0.12629338
68	0x3d76f8a2	0.06029571
69	0xbd9440f1	-0.07238949
70	0xbd560c40	-0.052257776
71	0x3e104f7c	0.14092821
72	0xbdfae3c7	-0.12250476
73	0xbd1bc42d	-0.038028885
74	0xbe19b23c	-0.15009397
75	0xbe794432	-0.2434242
76	0x3e12e2aa	0.14344278
77	0x3e2770ed	0.16351672
78	0x3dc0c6d6	0.09412925
79	0x3e2e2ce6	0.17009315
80	0x3dd80fd6	0.105498955
81	0x3e109325	0.14118631
82	0xbdbd962d	-0.092571594
83	0x3dbc4b0c	0.091940016
84	0x3d40cdcf	0.047071274
85	0x3e275fdc	0.16345161
86	0x3e3180ea	0.17334333
87	0x3d7b66c2	0.061377294
88	0xbd833e88	-0.06408411
89	0x3e594ebe	0.21221444
90	0xbe86dbe4	-0.26339638
91	0xbe0c58f9	-0.13705815
92	0x3ab2c971	0.0013640356
93	0x3d4132fb	0.04716776
94	0xbdb02109	-0.08600051
95	0xbe468854	-0.19387943
96	0x3db184f2	0.086679354
97	0xbd88d6ee	-0.066816196
98	0xbe4ca6f7	-0.19985567
99	0x3d515f06	0.051116012
100	0x3dc18fc3	0.094512485
101	0xbd805967	-0.06267052
102	0x3e1d3289	0.15351309
103	0xbb4dd1b9	-0.0031405522
104	0x3d8d0c74	0.06887141
105	0x3d51a94d	0.05118685
106	0x3c8da121	0.017288746
107	0x3daf2980	0.08552837
108	0xbdf96034	-0.121765524
109	0x3dee1f6b	0.11627086
110	0x3d9b37fa	0.07579036
111	0xbdb5e64d	-0.08881817
112	0x3dc60aab	0.096700035
113	0xbc93268b	-0.017962715
114	0xbe031101	-0.12799455
115	0xbdbc6762	-0.09199406
116	0xbe191f6b	-0.14953391
117	0xbd96849d	-0.07349513
118	0x3be9303a	0.0071163448
119	0xbdbcf6de	-0.09226774
120	0x3e3b1ef8	0.18273532
121	0x3e16f929	0.14743485
122	0x3d416804	0.047218338
123	0x3e031e9a	0.12804642
124	0xbddec021	-0.108764894
125	0x3df0e9ea	0.117633656
126	0x3e2cfb2e	0.16892692
127	0x3dbd3024	0.09237698
128	0x3dd7b3ba	0.10532327
129	0x3d89357d	0.06699655
130	0x3df0925e	0.11746667
131	0x3df93444	0.12168172
132	0xbe1aa4d9	-0.15101947
133	0x3e072e16	0.13201174
134	0xbcf739af	-0.030178873
135	0x3dc11498	0.09427756
136	0xbe3626db	-0.1778826
137	0x3e44adea	0.19206968
138	0x3e0b448d	0.13600369
139	0xbd5db593	-0.05412824
140	0x3dffcad2	0.12489857
141	0x3d118a82	0.035532482
142	0xbde94b4d	-0.113913156
143	0x3db08f3a	0.08621068
144	0xbe0be469	-0.1366135
145	0xbd704f4c	-0.058669373
146	0x3e3702db	0.17872183
147	0xbca8b948	-0.020596161
148	0xbdcd97ae	-0.10038696
149	0xbe31bc00	-0.17356873
150	0x3cc36414	0.023851432
151	0x3cf1e53b	0.02952825
152	0xbc9a8bd7	-0.018865509
153	0x3ca70ecd	0.0203928
154	0x3e23b5f9	0.15987386
155	0xbe288dc7	-0.16460334
156	0x3d0163f1	0.031589452
157	0x3c2ff7e8	0.010740258
158	0xbe1bc177	-0.1521052
159	0xbe24bb61	-0.16087104
160	0x3d22248e	0.039585643
161	0xbe4e198d	-0.20126934
162	0x3df29a31	0.11845816
163	0xbe4e02cc	-0.20118254
164	0xbd209174	-0.039201215
165	0xbd502288	-0.05081418
166	0xbd52c25e	-0.051454894
167	0x3dfc552c	0.12320933
168	0xbd64bb13	-0.05584247
169	0xbc831ebc	-0.016005866
170	0x3dda0ad7	0.10646599
171	0x3c86c9c5	0.016453633
172	0xbde37a72	-0.11107339
173	0xbe21b932	-0.15793303
174	0xbc212372	-0.009835111
175	0x3baa7e22	0.0052030245
176	0xbdbe1b81	-0.0928259
177	0x3e1ea268	0.1549164
178	0x3d01c5af	0.031682666
179	0x3afde85f	0.001937162
180	0x3e30db31	0.17271115
181	0xbd1b5332	-0.037921138
182	0x3e5c9236	0.2154015
183	0x3ddc3fe5	0.107543744
184	0xbdbe628d	-0.09296141
185	0x3e00a51d	0.12562986
186	0xbdf6660c	-0.12031183
187	0x3dcd19d7	0.10014694
188	0x3c7b3d8b	0.015334497
189	0xbd6ad317	-0.057330217
190	0xbd84fd8b	-0.06493672
191	0xbe6bd417	-0.23030125
192	0xbe28d85a	-0.16488782
193	0xbe067cea	-0.13133588
194	0x3ca25a1c	0.019818358
195	0xbdd52237	-0.104069166
196	0x3bd58e11	0.00651718
197	0xbe5422a9	-0.20716347
198	0x3ca56bb2	0.020192955
199	0xbd9498ba	-0.07255693
200	0x3c0c535c	0.008564796
201	0xbdc2be77	-0.095089845
202	0x3d077131	0.033066932
203	0xbe17fe94	-0.14843208
204	0xbc84346f	-0.016138284
205	0xbb91a162	-0.004444287
206	0x3e39d344	0.18146998
207	0x3db05568	0.0861004
208	0x3d775698	0.060385317
209	0xbd4ef86b	-0.05052988
210	0x3e29eafc	0.16593546
211	0xbdbb780d	-0.09153757
212	0x3e3ed6c8	0.1863662
213	0x3de5b900	0.112169266
214	0xbd7dc6ab	-0.061957043
215	0x3d8ec4f0	0.069711566
216	0x3d9e34e1	0.077249296
217	0x3d468935	0.048470695
218	0xbd09eaad	-0.03367107
219	0x3da99154	0.08279672
220	0xbd80bd14	-0.06286064
221	0x3d9148f9	0.070939966
222	0x3e3aa116	0.18225512
223	0xbe83b7de	-0.25726217
224	0x3dc590b9	0.09646744
225	0xbd2770bc	-0.040878996
226	0xbe15b4c9	-0.14619745
227	0x3c89a5bd	0.016802663
228	0xbdfa1526	-0.12211065
229	0xbe43cf65	-0.19122083
230	0xbd36e845	-0.044655103
231	0x3d0dc7ba	0.034614302
232	0x3d66d959	0.056359623
233	0xbd421675	-0.047384698
234	0x3dc3d335	0.09561769
235	0xbe39840f	-0.18116783
236	0xbe17eb0b	-0.14835756
237	0x3de898eb	0.11357292
238	0x3e52b19d	0.20575567
239	0x3e4e1b21	0.20127536
240	0x3dafabd8	0.085776985
241	0x3d2a6e32	0.041608997
242	0xbcd0e252	-0.025498543
243	0xbe2fcdc5	-0.17168339
244	0xbd9a3399	-0.07529373
245	0xbb478bc5	-0.00304483
246	0x3c870d80	0.01648593
247	0x3c80035c	0.015626602
248	0x3c86be02	0.016448025
249	0x3d4616c6	0.048361562
250	0xbe2a98a2	-0.16659787
251	0xbdbc09b9	-0.09181542
252	0x3da7345c	0.08164284
253	0xbd79adf3	-0.060956907
254	0x3d5c05ef	0.053716596
255	0xbe513234	-0.20429307

lstm.bias_ih_l1 f4 [128]
0	0x3e46eee9	0.19427074
1	0x3e0d0592	0.13771656
2	0xbd65227e	-0.055941097
3	0x3d4897a9	0.04897276
4	0x3dcb3015	0.0992128
5	0xbdedf244	-0.11618474
6	0xbc25c84d	-0.010118556
7	0x3e264e3f	0.16240786
8	0x3dc0e4eb	0.09418663
9	0x3dbf94ad	0.093545295
10	0x3e31739a	0.17329255
11	0x3db0a75d	0.08625672
12	0xbe0fcdf4	-0.14043409
13	0xbd5234cd	-0.051319886
14	0xbd702721	-0.058631066
15	0xbdee0613	-0.11622252
16	0x3e03d637	0.12874685
17	0x3d0dc80d	0.03461461
18	0x3e2ce130	0.16882777
19	0xbbe86621	-0.007092253
20	0x3d8f26fa	0.06989856
21	0xbc439eea	-0.0119397435
22	0x3e369ab1	0.17832448
23	0x3e038b4b	0.12846105
24	0xbcf097cf	-0.029369263
25	0x3c8adcf0	0.016951054
26	0x3d0bcd26	0.03413119
27	0xbd82a602	-0.0637932
28	0xbe281646	-0.16414747
29	0x3dd6034d	0.10449848
30	0x3e15ee89	0.14641775
31	0xbd85ff7c	-0.065428704
32	0x3e12959d	0.14314885
33	0xbe06c3b3	-0.13160591
34	0xbdfef978	-0.12449926
35	0x3d7a81ab	0.061158817
36	0x3d020305	0.03174116
37	0xbd2afcfe	-0.04174518
38	0x3c39f908	0.011350878
39	0x3d73c54f	0.05951434
40	0xbda74f66	-0.08169441
41	0x3e291c86	0.16514787
42	0xbdafa08b	-0.08575543
43	0xbc914e6a	-0.017737586
44	0xbe042f18	-0.1290859
45	0xba4ab4d3	-0.00077326334
46	0x3cd95f20	0.026534617
47	0xbd27d187	-0.040971305
48	0xbe043af1	-0.1291311
49	0xbcb0f6d2	-0.021602068
50	0xbdad3e84	-0.084591895
51	0x3e3dbbf3	0.18528728
52	0x3e4b6562	0.19862893
53	0x3cb9a6e7	0.022662593
54	0xbd2b6014	-0.041839674
55	0x3de5782c	0.112045616
56	0xbc9d3130	-0.019188493
57	0x3e21db29	0.15806259
58	0x3e37a157	0.1793264
59	0x3e257c44	0.16160685
60	0x3e33963f	0.17537783
61	0xbce1be75	-0.027556637
62	0xbe063491	-0.1310599
63	0x3c9e3c27	0.019315792
64	0xbe431d7d	-0.19054218
65	0x3db9354e	0.0904337
66	0xbce639b1	-0.028103681
67	0x3dea9543	0.11454251
68	0xbe035bb7	-0.12827955
69	0x3d8266ac	0.06367239
70	0x3d5e014f	0.054200467
71	0x3e28c00b	0.16479509
72	0xbe076c3a	-0.13224879
73	0x3d19fb6c	0.03759329
74	0xbdae39c7	-0.08507114
75	0xbce72192	-0.02821425
76	0x3e189747	0.14901458
77	0xbd8317f3	-0.06401052
78	0x3dbd9313	0.09256568
79	0x3d16fb0c	0.03686051
80	0x3be68714	0.0070351455
81	0x3e18d4e5	0.14924963
82	0x3cb9a5e2	0.022662107
83	0xbdf5c8c5	-0.120011844
84	0x3e274916	0.16336474
85	0x3e0cfc7b	0.13768189
86	0xbd972447	-0.07379966
87	0x3dfa818c	0.1223174
88	0xbcdefe10	-0.027220756
89	0x3d282153	0.041047405
90	0xbc106547	-0.008813209
91	0xbe12b367	-0.14326249
92	0x3e39f0c1	0.18158247
93	0x3dff2a92	0.124592915
94	0xbe2d4226	-0.16919765
95	0xbe368c1e	-0.17826888
96	0x3e444c3c	0.19169706
97	0x3d9107f1	0.07081593
98	0x3aff588a	0.0019481343
99	0xbcbefc75	-0.02331374
100	0x3e20faa6	0.15720615
101	0x3e1457b1	0.14486577
102	0xbe1bdca0	-0.1522088
103	0xbd0f2131	-0.034943763
104	0xbd6f4b89	-0.058421645
105	0xbe086de4	-0.1332317
106	0xb9b8ce63	-0.00035248985
107	0x3dc30f40	0.09524393
108	0x3b882148	0.004154358
109	0xbd5f7750	-0.054557145
110	0xbccc4192	-0.02493361
111	0x3b9d6f0c	0.0048044976
112	0xbda89e9f	-0.082333796
113	0x3d9a3692	0.0752994
114	0xbdeecfb1	-0.11660708
115	0x3daa51d0	0.08316386
116	0x3b0c28e9	0.002138669
117	0xbb6f22b6	-0.0036489195
118	0x3dd3c88b	0.10340985
119	0x3e009a01	0.12558748
120	0x3d9d2017	0.07672136
121	0x3e27c180	0.16382408
122	0x3e738b29	0.23783554
123	0x3d07795d	0.033074725
124	0x3d85cea4	0.06533554
125	0x3e316864	0.17324978
126	0xbd930b45	-0.07179884
127	0x3d2f420b	0.042787593

lstm.bias_hh_l1 f4 [128]
0	0xbe100958	-0.14066064
1	0x3d907b78	0.070548
2	0x3e04897d	0.12943073
3	0x3e299e96	0.16564402
4	0x3d0ce869	0.03440133
5	0xbdd70028	-0.10498077
6	0xbdaec797	-0.085341625
7	0xbe04946b	-0.12947242
8	0xbc1e8487	-0.009675152
9	0x3d673047	0.056442525
10	0xbdbaf126	-0.09128027
11	0x3ce0c189	0.027436035
12	0x3d93cdbf	0.07216977
13	0xbd508aa2	-0.05091346
14	0x3ce0ae25	0.027426789
15	0xbd9ba25b	-0.07599326
16	0x3e377051	0.17913939
17	0xbdf76d75	-0.12081424
18	0x3b8e8bae	0.004350147
19	0x3d435408	0.04768756
20	0xbd80c01e	-0.062866434
21	0x3e235ae0	0.15952635
22	0x3d4bc203	0.04974557
23	0xbd6fd482	-0.058552273
24	0x3c061c94	0.0081855245
25	0x3e236a75	0.15958579
26	0x3d86d827	0.065841965
27	0xbe0702b1	-0.1318462
28	0xbe03dbe7	-0.12876855
29	0x3e37aaef	0.179363
30	0x3e217726	0.15768108
31	0xbd898b3c	-0.0671601
32	0x3e24af97	0.16082607
33	0xbda2b720	-0.079450846
34	0xbd923563	-0.07139089
35	0x3d0748c7	0.03302839
36	0x3e1d26b5	0.15346797
37	0x3dd15619	0.102215
38	0xbe08662c	-0.13320225
39	0xbc98d154	-0.018654503
40	0x3de22ac1	0.11043311
41	0x3e15e0b1	0.14636494
42	0x3dcc0773	0.09962358
43	0xbcf23df1	-0.029570552
44	0xbd013569	-0.031545077
45	0x3dceba07	0.10094076
46	0xbd325a81	-0.043543343
47	0x3e1ad7cf	0.15121387
48	0x3db27cbf	0.087152
49	0x3e063163	0.13104777
50	0x3e09a25b	0.1344084
51	0x3c5143cf	0.0127725145
52	0x3e34c075	0.17651542
53	0x3e4620c0	0.1934843
54	0xbbf4cc24	-0.0074706245
55	0xbdc8aa73	-0.097981356
56	0xbc45039f	-0.012024789
57	0x3cf9ec67	0.030508233
58	0xba687d06	-0.00088687276
59	0x3ddc405e	0.107544646
60	0x3d97400f	0.07385265
61	0xbd406678	-0.04697272
62	0x3d9ad40e	0.075599775
63	0x3deeed51	0.11666358
64	0x3caa20f3	0.020767665
65	0xbd3dba00	-0.04631996
66	0x3d666bf2	0.05625529
67	0xbca3a27f	-0.019974945
68	0xbe01fae1	-0.12693359
69	0xbdf764a0	-0.120797396
70	0xbe0adf6a	-0.13561788
71	0xbddc5b12	-0.10759558
72	0xbbcb3027	-0.0062008086
73	0x3d3d1c7e	0.04616975
74	0xbd9b8e8e	-0.075955495
75	0xbddc51db	-0.107578
76	0xbe014b37	-0.12626348
77	0xbdaa001f	-0.08300804
78	0x3da4f36b	0.08054241
79	0xbdfc69b7	-0.12324851
80	0xbd1937c0	-0.037406683
81	0x3daf585b	0.08561774
82	0x3d688e5b	0.056776386
83	0x3d0ac51f	0.033879396
84	0x3d65203a	0.055938937
85	0xbd6fb7f0	-0.058525026
86	0x3b121748	0.0022291709
87	0x3ddaba72	0.10680093
88	0x3dd55d1e	0.10418151
89	0x3cd696e2	0.026194993
90	0xbde2d39c	-0.110755175
91	0xbe03868f	-0.12844299
92	0xbd05e1e2	-0.03268612
93	0xbdde722a	-0.10861619
94	0x3da8e725	0.08247212
95	0xbd9a2148	-0.07525879
96	0x3e1f910f	0.15582679
97	0xbe2f0db9	-0.17095079
98	0x3e1b9932	0.15195158
99	0x3e5b7e74	0.21434957
100	0x3ce39a28	0.027783468
101	0x3dc762ea	0.09735663
102	0xbd52e29e	-0.05148565
103	0x3dfd139a	0.12357254
104	0x3e3a99d7	0.18222748
105	0x3d4a0a07	0.04932597
106	0x3d7ef89a	0.062248804
107	0x3d71d939	0.05904505
108	0x3dbffd04	0.09374431
109	0x3e15cb51	0.1462834
110	0x3dffb994	0.12486568
111	0xbe06ab90	-0.13151383
112	0xbda031db	-0.07822009
113	0xbe146725	-0.14492472
114	0xbd3f47b4	-0.04669924
115	0xbdb0c5f7	-0.08631509
116	0xbe108c9e	-0.14116141
117	0x3e2e7a39	0.17038812
118	0x3c405b8d	0.011740577
119	0xbdeec6ec	-0.11659035
120	0x3e2c6276	0.16834435
121	0xbdbd9641	-0.09257174
122	0x3e545b1c	0.2073788
123	0xbd871661	-0.06596065
124	0x3e272efc	0.16326517
125	0x3de4b057	0.11166447
126	0x3e0e80ec	0.13916367
127	0x3dccff49	0.10009629

fc.weight f4 [1, 32]
0	0xbd09c67a	-0.033636548
1	0x3c07756f	0.008267744
2	0x3d3f880f	0.046760615
3	0x3d43233e	0.04764103
4	0x3c8c0dfb	0.01709651
5	0x3d4f2893	0.050575804
6	0xbd2b8f8e	-0.04188495
7	0x3d3aa0b5	0.04556342
8	0x3cc9181a	0.024547625
9	0xbd008898	-0.031380266
10	0x3d273f1e	0.040831678
11	0x3d14c5e1	0.036321525
12	0x3d536c5d	0.051617015
13	0xbd84e586	-0.064890906
14	0xbcc24875	-0.02371619
15	0xbd86fb0b	-0.065908514
16	0x3d1b4366	0.037906073
17	0xbce6ad09	-0.028158681
18	0xbcfac394	-0.030610837
19	0x3d2bec8d	0.04197364
20	0xbd2f0c1a	-0.04273615
21	0x3d80cc2c	0.06288943
22	0xbd3a2212	-0.04544265
23	0xbca3f3da	-0.020013738
24	0xbd08de60	-0.0334152
25	0xbce2d7b4	-0.027690746
26	0x3d6023bc	0.05472158
27	0x3d8142ee	0.06311594
28	0x3d2350a5	0.03987183
29	0xbd635ea5	-0.055510182
30	0xbd527149	-0.05137757
31	0x3d491647	0.04909351
