models/mlp.pth (torch, 7200 bytes, 5 tensors)

1.weight f4 [32, 20]
000000 de 70 12 bd d6 48 24 ba 3b a4 0d 3a d7 3a 46 bb
       -0.03575217 -0.0006266957 0.00054031954 -0.0030247474
000010 58 36 27 bd d4 50 97 3c 51 48 26 bb bf eb 75 ba
       -0.04082331 0.018471159 -0.0025372694 -0.0009381137
000020 6f 80 05 bd b9 11 87 bc 1a 7e 26 3c 5c fc e2 bb
       -0.032593187 -0.016487943 0.010161901 -0.0069270562
000030 89 a0 8e bc 2a be f1 3b de 58 7f 3b 4e 6f e1 3b
       -0.017410534 0.0073774057 0.003896288 0.0068797236
000040 e6 15 6a bc c1 8c 99 3c cf 42 38 bc ce 20 04 3c
       -0.014287448 0.018743875 -0.011246397 0.008064462
000050 83 e6 3c bc d3 c1 cd ba 45 7a a0 bb 1b 0e 13 bc
       -0.011529568 -0.0015698023 -0.004897388 -0.008975531
000060 84 e3 c3 bb 44 d2 0c bc 11 e3 55 3c 9a 8d 86 3c
       -0.0059780497 -0.008595053 0.013054625 0.016424943
000070 5e 42 9f bc 15 41 b4 3b c3 fe c5 3a 2f 2f 34 3c
       -0.019440826 0.0055009224 0.0015105832 0.010997578
000080 a3 65 91 bc 40 f6 22 3c 47 d7 fa 3b 6f b7 81 bc
       -0.01774866 0.009946406 0.0076550576 -0.015834538
000090 9e 88 2c bc f2 a0 ec 3a 6a f4 fa bb 3e e6 2e 3b
       -0.010530619 0.0018053337 -0.007658531 0.0026687528
0000a0 04 da 0b bd 7c b0 1d bc fc 92 c8 3c 38 06 c7 bb
       -0.034143463 -0.009624597 0.02448415 -0.0060737394
0000b0 c9 54 49 bd 9d e9 17 39 b2 98 aa 3c 36 ab ef 3a
       -0.049153123 0.0001448751 0.020824764 0.0018285278
0000c0 62 0f d8 bc 78 24 d3 3b d0 40 67 3b c4 80 e0 3a
       -0.026374523 0.0064435564 0.0035286434 0.0017128219
0000d0 0a 60 03 bd 8d cd b0 3b 6e 5b 6f 3c b7 3d 39 3b
       -0.03207401 0.0053955973 0.014609201 0.0028265545
0000e0 fd 00 39 bd 40 44 97 3c 3d 60 22 3b c4 73 7c 39
       -0.045166958 0.018465161 0.00247766 0.00024075719
0000f0 69 89 c6 3e 8a 39 a1 bd 1a 84 13 3e c0 5d e4 3e
       0.3877671 -0.07872303 0.14405861 0.44602776
000100 56 cc d7 3e 40 6e 2d bd 2b 05 10 3e 42 90 de 3e
       0.42148083 -0.04234147 0.14064471 0.43469435
000110 78 41 dd 3e 67 1f 86 bc 35 19 c8 3d 3a ff e2 3e
       0.4321401 -0.016372396 0.09770433 0.44335347
000120 78 c1 c6 3e 4e ba 24 3d 2a dc da 3d f8 9d f0 3e
       0.3881948 0.040216736 0.10686524 0.4699552
000130 57 57 62 3e 7b 40 f0 3c f9 10 9e 3d 55 00 1e 3f
       0.2210363 0.029327622 0.07718081 0.61719257
000140 0c f3 06 bd 1b d5 84 3a 64 4e 91 ba 5a 31 60 ba
       -0.03294663 0.0010134311 -0.0011085984 -0.0008552276
000150 4a c6 32 bc 19 35 84 3b f3 94 45 bb 44 9f f8 bb
       -0.010911534 0.00403465 -0.0030148595 -0.0075873453
000160 bf 65 5d bc 22 02 18 3c b0 28 0f 3a dd 7a 2e 3b
       -0.013513028 0.009277852 0.000546108 0.0026623525
000170 7f b9 53 bc 43 10 ed 3a 71 af d1 bb 00 2b 05 3c
       -0.012922644 0.0018086511 -0.006399088 0.008127928
000180 4d f3 e7 bb ab 1b 27 bb 5d 6b 53 3c 87 e2 35 bc
       -0.0070785643 -0.002549867 0.012904015 -0.011101372
000190 38 d2 c9 bc 5a 15 d1 3a 61 96 ff 3b 08 73 35 3c
       -0.024636373 0.0015951798 0.007799909 0.011074789
0001a0 df 4a d7 bc e9 a0 32 3c dd e1 22 bb 2f c4 c4 3a
       -0.026280819 0.010902622 -0.0024853863 0.001501208
0001b0 5e 05 01 bc f0 b7 68 bb 69 50 db ba de a3 9d bb
       -0.007874815 -0.0035510026 -0.0016732338 -0.0048107943
0001c0 c7 38 b5 bc 93 2a 38 3c 44 e7 54 bb 11 a5 0b 3c
       -0.0221218 0.011240619 -0.0032486478 0.008523242
0001d0 8f 11 c7 bc 1a fe b8 bb 6d 84 31 bb 7f d9 45 3b
       -0.024300365 -0.0056455256 -0.0027086989 0.0030189452
0001e0 7e 32 21 bc 30 cb a4 bb 34 e0 3b bc fb ff 31 3c
       -0.009838698 -0.0050291047 -0.011467028 0.010864253
0001f0 01 cd aa bc c4 b9 21 bc 7c 59 3b bc 14 ac 77 3b
       -0.020849707 -0.00987095 -0.011434909 0.0037791776
000200 b9 24 2c bd b6 1b 91 bb 81 8e c6 bb ac 03 6b bc
       -0.04202721 -0.004428352 -0.0060594683 -0.014344137
000210 69 3b 0c bd c8 49 cc 3b b0 12 57 3c cb bf 94 3b
       -0.034236345 0.0062343813 0.013127014 0.004539465
000220 9a 09 77 bc f6 dc 6c 3b d6 2f 18 3b 99 6d b5 3a
       -0.015077973 0.0036142445 0.0023221872 0.0013841867
000230 7f 42 15 bd 7b 2b bc 3c 08 26 42 3c 9e 8f 3e 3c
       -0.03644037 0.022969952 0.011849888 0.011630921
000240 ee b0 4d bd 94 39 b1 bb 1e 43 d3 39 d1 56 8c 3b
       -0.05021756 -0.005408475 0.00040295062 0.0042828103
000250 32 32 33 bd 87 fc 3e bc be 43 ad bb 1b ab 4b 3c
       -0.04374904 -0.011656887 -0.0052876165 0.012430931
000260 99 b6 0b bd 4a f8 6a 3c 11 54 9c bb 48 9d d4 bb
       -0.034109686 0.014341423 -0.0047707637 -0.006488476
000270 64 06 f1 bc 3d 5e cf 3a 31 f5 64 bc ae c0 6d 3b
       -0.029421993 0.0015820932 -0.013974474 0.0036278176
000280 15 6f 0b bd 70 04 4d bc 20 56 58 3c f5 b9 35 bc
       -0.034041483 -0.012513265 0.013204128 -0.011091699
000290 54 b2 ed bc 2c 08 b0 bc 5c 39 4e bb 6b 8a 45 3b
       -0.029015698 -0.021488272 -0.0031467294 0.0030142318
0002a0 f8 a9 1b bd 26 0b d4 bb 1f 41 30 bc 44 ae 38 3c
       -0.03800389 -0.0064710556 -0.010757714 0.011272017
0002b0 69 e4 cb bc f4 a8 0c bc e9 50 88 ba f2 17 4e bc
       -0.024889188 -0.008585203 -0.001040009 -0.012578951
0002c0 66 28 05 bd f3 14 4f ba 3a db ea 3b 3c d5 70 ba
       -0.03250923 -0.0007899545 0.007167247 -0.0009187048
0002d0 6f 0c cb 3e c7 ba 98 bc 41 99 a6 bc f2 05 c6 3e
       0.39657924 -0.01864375 -0.020336749 0.3867641
0002e0 3f 33 d0 3e 24 d6 0d bd 54 e1 63 bc 54 ac cd 3e
       0.40664098 -0.03462805 -0.013908703 0.40170538
0002f0 ff c2 c7 3e 42 20 21 bd 0d 2e 5e 3c 1f 66 d6 3e
       0.39015958 -0.039337404 0.013560784 0.41874787
000300 64 6e d3 3e b9 4f 2a bd 76 99 e7 b9 07 1b da 3e
       0.4129516 -0.041579936 -0.0004417409 0.42598745
000310 7c d3 c9 3e 45 a7 ca bc ee d2 e0 3c b7 7b e9 3e
       0.39419162 -0.024737963 0.02744433 0.456022
000320 8f 9f 98 bd b0 60 03 bc 00 82 e8 bb 56 bf bb 3b
       -0.074523084 -0.008018658 -0.0070955753 0.005729596
000330 53 2e aa bd 85 7e f9 3a b4 b3 ea bb 2f fd 85 bb
       -0.08309617 0.0019034898 -0.0071625356 -0.0040890197
000340 49 ec bc bd 0b 76 08 bb ec 6a ee bb 5c 03 1d 3c
       -0.09224755 -0.0020822312 -0.0072759297 0.0095833205
000350 9a f5 c3 bd 60 45 a0 bc 93 ff 87 3c c6 d7 55 3b
       -0.09568329 -0.01956433 0.01660136 0.0032629832
000360 e0 0b 94 bd 23 03 36 bc 62 52 88 3b 6f 96 00 3b
       -0.072288275 -0.011109146 0.0041602114 0.0019620915
000370 af 68 21 be 2d 68 d0 3c 1a e2 06 3b 50 dd 66 3c
       -0.1576259 0.0254403 0.0020581544 0.014090851
000380 2f dd 26 be af e7 0b 3d 3e 01 ed bc 69 75 2b 3c
       -0.16295312 0.034156498 -0.028931256 0.0104650045
000390 d1 4c 2d be 4e 30 3a 3d 93 2f 9c bc 29 dd 25 3c
       -0.16923834 0.045456223 -0.019065654 0.0101235295
0003a0 d3 11 1e be 3b bf 35 3d 9c df 81 bc 7b ef d7 3c
       -0.15436487 0.044371825 -0.015853696 0.02635931
0003b0 37 7d 1a be bd bd df 3c 86 39 02 bc 69 a6 fe 3c
       -0.15086828 0.027312154 -0.007948285 0.03108521
0003c0 59 b2 87 bd d8 19 b1 bb 05 9f 17 3d c0 df 5e 3a
       -0.06625814 -0.005404692 0.037016887 0.0008501969
0003d0 5f dd 8a bd 34 33 24 3a f2 1f a0 bb d7 58 93 bc
       -0.067805044 0.00062637334 -0.0048866207 -0.017986698
0003e0 eb 53 93 bd 04 de 8c 3c 3e 9f 8d 3c 67 50 10 3b
       -0.071937405 0.017195709 0.017287847 0.002202058
0003f0 20 07 74 bd 24 0d f7 bc 5c 7c 04 3c 82 ed 08 b9
       -0.059577107 -0.030157633 0.00808629 -0.00013058449

1.bias f4 [32]
000000 ab 16 c7 bc f1 17 ad bc d8 35 20 bd eb ce d1 3e
       -0.024302801 -0.02112958 -0.03911385 0.40978178
000010 e7 d4 4c bc 45 b9 b9 bc 2f 14 f2 bc 65 ed 83 bc
       -0.012501932 -0.022671351 -0.02955064 -0.01610441
000020 bd cc 90 bc 90 6c e8 3e 97 c2 77 bd f3 9c 12 be
       -0.017675752 0.45395327 -0.06048831 -0.14317684
000030 6f 23 65 bd 7b ad 65 bc ff 33 6f bf 94 26 0e 3f
       -0.055941995 -0.014018412 -0.93438715 0.55527616
000040 d9 f8 0c 3f f7 4e 09 3f 06 24 0b 3e b1 a2 f8 bc
       0.5506721 0.53636116 0.1358796 -0.030351015
000050 bc d0 91 bd c7 19 4b bd ec ba 9d bd 02 5c 76 bc
       -0.07119891 -0.04958513 -0.07701668 -0.015036585
000060 45 f6 e7 bc 2b 79 0e 3f f7 fc 0e 3f d3 ff 52 3e
       -0.028315673 0.5565364 0.55854744 0.20605402
000070 ae c7 1b bc 1b a6 d6 bc 60 fe 0f bf 83 f7 d7 3e
       -0.009508057 -0.026202252 -0.5624752 0.42181024

4.weight f4 [16, 32]
000000 fe ec 08 bd b7 4e 39 bb 62 49 34 3c 73 36 d3 bb
       -0.03342914 -0.0028275677 0.011003824 -0.0064457
000010 c1 40 f0 bb 7e 73 17 bb 2b d3 3b bc 2f 21 f5 bb
       -0.007331938 -0.002310961 -0.011463921 -0.0074807624
000020 ee 08 e6 bb b7 6b 51 bc e0 88 48 bc b6 ba be 3a
       -0.0070201075 -0.012782029 -0.012239665 0.0014551494
000030 45 1f 84 3a f5 b3 91 bc 12 25 0c 3b 78 85 a3 bc
       0.001008012 -0.017786006 0.00213844 -0.019961104
000040 59 f3 86 bc ec 52 91 3c 41 f2 99 bc 9d 08 ad 3b
       -0.01647346 0.017739736 -0.018792273 0.005280568
000050 42 9f ca 3a d1 76 56 bc 0a 68 3f bc 74 f3 a3 3b
       0.001545884 -0.0130898515 -0.01168252 0.005003387
000060 b4 c0 65 bc b9 c5 32 bc 41 a4 0e 3a 4d 75 ba bc
       -0.014022995 -0.010911399 0.0005441346 -0.022761011
000070 6e cf bc 3c eb a9 e3 bc 64 ae 2d bc ca c4 35 bc
       0.023048129 -0.027790984 -0.01060066 -0.011094281
000080 f0 69 94 bb 27 ac f8 3b 61 63 b2 bb f7 c7 31 bb
       -0.0045292303 0.0075888815 -0.005443976 -0.0027127245
000090 e3 ea 6f 3b 55 a3 cd bb 9b 6b a0 3b 0c 38 04 bd
       0.003660851 -0.006275574 0.00489564 -0.032280013
0000a0 8b f4 57 bb 7c ef 67 bc d7 43 07 bc 43 b6 d5 3b
       -0.0032952155 -0.014156219 -0.00825592 0.0065219714
0000b0 b8 81 11 bc 8a 24 a5 bb 65 95 7d bc 21 b3 15 bb
       -0.008881025 -0.005039756 -0.015477513 -0.0022842365
0000c0 c0 63 ab bc 88 34 f3 bb 14 9a a2 bc e9 8f 25 3c
       -0.020921588 -0.0074220337 -0.01984886 0.010105112
0000d0 bf 48 d2 bb a5 da 8e bc 33 e6 91 bc 1c 46 f3 bb
       -0.0064173634 -0.017438242 -0.017809963 -0.007424129
0000e0 43 10 a0 bc 8c da a1 bc 74 a5 68 bb ee 34 eb 3b
       -0.019539004 -0.019757532 -0.0035499008 0.0071779406
0000f0 62 12 a1 bb eb 4d a9 bb 99 9f c0 bc ad 25 90 bb
       -0.0049155215 -0.0051667592 -0.023513602 -0.0043990226
000100 93 54 72 bb c1 05 0b bc ae 02 85 bb 9b 56 35 bf
       -0.003697668 -0.008485259 -0.0040591573 -0.70835274
000110 fd 11 e4 bb 7c 88 9b 3a 97 bd 8e 3b 6d f6 25 bc
       -0.006960152 0.0011866237 0.004356097 -0.010129553
000120 ed db 0d bc ab 86 fd be c0 db 80 3b 52 d5 e1 bc
       -0.008658391 -0.49516806 0.0039324462 -0.02756754
000130 67 f2 6d bd 00 d8 3b bd 7f be d1 bf 9a af 94 3c
       -0.0580925 -0.04586029 -1.638626 0.01815014
000140 df c7 a0 bf 3c c1 24 bd ef b5 ba bc 25 81 a4 bb
       -1.2560996 -0.040223345 -0.02279183 -0.005020278
000150 cf 1e a2 3c bf 42 51 bc 3c 72 b3 3b 67 91 0e bc
       0.019790081 -0.012772261 0.0054762643 -0.008701659
000160 2a 4c c9 3a 6c dc ad 3c 01 a5 a7 bf 7c e0 c1 be
       0.0015357782 0.02122327 -1.309723 -0.3786658
000170 9f 14 f1 ba de 52 ec bb 16 2c 92 be 51 68 bb bd
       -0.0018392986 -0.007212027 -0.2854926 -0.09150756
000180 28 b5 95 bb a6 39 2a bc 32 7c eb 3b 92 05 55 bf
       -0.0045687146 -0.010389721 0.007186436 -0.83211625
000190 ca ec a8 3b 31 31 a5 3b 78 ce 5d 3b ab 65 70 bb
       0.0051551806 0.0050412645 0.0033844989 -0.0036681693
0001a0 bd 54 a0 3c c0 42 0e bf 26 38 2b bd 74 48 99 3a
       0.019571656 -0.555706 -0.041801594 0.0011694566
0001b0 de 81 02 bc 83 2b 0e 3b 40 e7 c8 bf 93 47 20 3d
       -0.007965533 0.0021693415 -1.5695572 0.03913076
0001c0 f6 9d c2 bf 77 96 86 3c 51 61 3d 3b 85 0a a1 3c
       -1.5204456 0.01642917 0.0028897116 0.019658336
0001d0 d6 1e 39 bd fd dc 83 bc b1 54 70 3c aa ba c4 3b
       -0.045195423 -0.016096586 0.0146686295 0.0060036974
0001e0 68 be c6 3a 68 b6 15 3d 11 37 b2 bf fd 4e 46 be
       0.0015162947 0.03655091 -1.3923055 -0.19366069
0001f0 29 74 43 3c 1f 0c 1d 3b 3f 70 82 be 79 ad 81 bd
       0.01192955 0.0023963524 -0.25476262 -0.063319154
000200 1e 4d c0 ba d4 f0 06 3c 19 9b a6 3a 2f e5 23 bf
       -0.001467142 0.008236129 0.0012711018 -0.6402158
000210 58 ae fc ba cc e0 e8 3b 9b c9 21 3c 23 f6 d1 3b
       -0.0019278033 0.007106876 0.009874727 0.0064075156
000220 9b de ab bb e9 d0 e5 be 04 b6 25 bd 3e f2 be bd
       -0.0052450425 -0.44885948 -0.040456787 -0.09323548
000230 de 8a cd bc 5a ec 0e bc 26 74 ba bf e5 e0 a2 bc
       -0.025090631 -0.008723343 -1.4566696 -0.019882629
000240 5c e7 a8 bf 44 bd 19 3d 03 e0 66 bd fa 8b d7 3b
       -1.3195605 0.037534013 -0.056365978 0.006577966
000250 8a e0 6f bc a3 11 40 3c f0 82 57 bb c6 9e ea 3b
       -0.014640937 0.011722955 -0.0032884441 0.0071600405
000260 37 ba a0 bc cf cb 0d 3d 71 a4 b0 bf ba 79 9b be
       -0.019620044 0.034618195 -1.3800184 -0.30366307
000270 05 a0 3d bc 64 be 36 3c dd bd 64 be 08 68 0f bd
       -0.011573796 0.011153791 -0.22338052 -0.03501132
000280 71 bb 8c bc 60 87 19 bd c2 e7 23 bb 74 c6 ab bb
       -0.017179223 -0.03748262 -0.0025009965 -0.0052421633
000290 70 93 7b 3b d4 87 24 bb 05 e1 19 3c b4 84 fe bc
       0.003838744 -0.0025105374 0.009392028 -0.031069137
0002a0 cb 2e 31 bb ca 78 6c 3b b1 f1 80 3c 6d 11 b1 bc
       -0.0027035947 0.0036082738 0.015740247 -0.021614755
0002b0 b9 6f b9 3c 2a 0d 10 bc ac 72 09 bd ea 86 51 bd
       0.022636281 -0.008792201 -0.033556625 -0.051154055
0002c0 77 70 91 bc 05 4a f5 bc 6f f7 ae bc 27 ee 2b 3c
       -0.017753823 -0.029942522 -0.02135822 0.010493792
0002d0 da 70 10 bc 7a 0d ef bb cf 89 6c bc c9 b6 61 3b
       -0.008815968 -0.0072953077 -0.014437153 0.0034441224
0002e0 89 15 0b bc 66 0a 8d bc 6e 91 cd bc c9 c9 7e bc
       -0.008489021 -0.017216872 -0.02509376 -0.015551039
0002f0 20 89 0d bd 42 ed 8d 3a 88 98 e4 bc 2e 99 88 bc
       -0.0345546 0.0010828155 -0.027904764 -0.016674604
000300 61 5d 0f bc f7 d1 19 bc 8e 01 ec bb af 92 09 bc
       -0.008750291 -0.009388438 -0.007202334 -0.0083967885
000310 ef d0 7f bb fd d2 b0 bb 4d 2c 92 bc db 08 54 3c
       -0.0039034446 -0.0053962455 -0.01784339 0.012941564
000320 81 0b 43 bb 9c a5 ba 3b 0c c6 fa bb dd 9d e0 bb
       -0.0029761496 0.0056960117 -0.0076530036 -0.0068547563
000330 b9 c1 4d 3b 5d db a3 ba 43 c3 91 bb 87 14 a6 bb
       0.0031395985 -0.0012501288 -0.004448326 -0.005068365
000340 87 1f 3e 3b c4 a6 a9 bb 00 f3 bc 3b a5 3e c8 3b
       0.002901049 -0.0051773507 0.0057662725 0.0061109834
000350 08 23 95 3b 87 d6 93 bb 7f 71 17 3a 9e 39 9c bb
       0.004551295 -0.0045116576 0.0005777105 -0.0047676107
000360 dd 2f 1e 3a bd 58 57 bb 21 05 b7 bb c6 5c 70 bc
       0.0006034354 -0.0032859289 -0.005585328 -0.014670556
000370 4b 35 76 3b e2 8f cd 3b 12 82 04 bc 5f 66 23 bc
       0.0037568386 0.0062732557 -0.008087652 -0.009973138
000380 ab 72 38 bb 50 f7 4b 3c b5 bc 95 bc e9 64 b0 ba
       -0.002814452 0.012449101 -0.01827846 -0.0013457808
000390 f8 4b d4 bc 46 69 f4 3b 55 a0 a6 bc 6d 82 e4 bc
       -0.025915131 0.0074588386 -0.020340124 -0.027894223
0003a0 ef 6e cd bc f6 2e b4 bc 1c 60 9f bc 16 99 de 3b
       -0.025077311 -0.021995049 -0.019455008 0.0067931516
0003b0 39 0e 84 bc bc 2d a2 3a 8d 47 ce bb 28 e3 47 bc
       -0.016120063 0.0012373249 -0.0062951506 -0.012200154
0003c0 80 42 f5 bc 2d 1a b1 bb 3d 4a a1 bc 54 89 d4 bb
       -0.029938936 -0.0054047317 -0.01968872 -0.0064860974
0003d0 0e ad 89 bc 05 38 8f bb 49 a7 a2 bc bb 6a 9a 3a
       -0.016806152 -0.0043706917 -0.019855158 0.0011781076
0003e0 32 7c bb bb d5 fd 37 bc a5 a8 ef bc 45 b2 83 bc
       -0.0057215923 -0.011229952 -0.02925522 -0.016076216
0003f0 55 7e 99 bc 64 f9 22 bc 0a d2 28 bc d9 95 44 bc
       -0.018736998 -0.009947155 -0.010303983 -0.011998617

4.bias f4 [16]
000000 ae 94 12 bd 82 1f aa bb d0 1a 89 3e 64 b1 5f 3e
       -0.035786323 -0.0051917443 0.2677827 0.21845013
000010 f1 fa 63 3e 97 37 ed bc ee 73 08 bc 5b 59 2a bd
       0.22263695 -0.028957171 -0.008328421 -0.041589122
000020 e9 66 4f bc ed 3f 69 3e af da 4b 3e 92 0b 0f bc
       -0.012658813 0.22778292 0.1990764 -0.008730786
000030 6f f2 e3 bc 9c a6 79 3e b1 fd 0d bd ab eb 33 bd
       -0.027825562 0.24379963 -0.034665767 -0.043925922

7.weight f4 [1, 16]
000000 92 8c c2 bc 5b 6f 22 3c 7f c0 8a bf 10 ce 82 bf
       -0.02374867 0.0099142445 -1.0839995 -1.0219135
000010 1f 8b 64 bf 64 fa 74 3b b9 4a a2 bc 0e 32 a3 bb
       -0.8927478 0.003738069 -0.019811021 -0.004980332
000020 41 9c 07 3c ad 07 86 bf ad 78 89 be 4f 5a df ba
       0.008277 -1.0471092 -0.2684988 -0.0017040464
000030 b1 aa 69 3c 6e 2d 8b bf f8 70 09 bc ae 34 04 bc
       0.014261887 -1.0873239 -0.00838875 -0.0080692
