models/mlp.pth (torch, 7200 bytes, 5 tensors)

1.weight f4 [32, 20]
000000 f8 c1 d4 bc 1c 79 fd ba d9 a2 95 3b 2e 3a bd bb
       -0.025971398 -0.0019338462 0.004566532 -0.005774758
000010 43 9f fb bc c5 7e 90 3c cc 87 2c 3b 29 7c 55 bb
       -0.03071559 0.017638573 0.0026326058 -0.0032575226
000020 44 44 c3 bc d0 ca 88 bc 6d c3 7c 3c c6 1b 18 bc
       -0.023836263 -0.016698271 0.0154274525 -0.009283965
000030 3a 3f 11 bc ce 2e fc 3b 1d 34 07 3c e6 24 95 3b
       -0.008865172 0.0076960092 0.008252171 0.004551518
000040 36 17 9f bb 52 21 a4 3c 78 ff 04 bc 94 7a bd 3b
       -0.004855062 0.02003542 -0.008117549 0.0057824347
000050 74 cf ce bc 15 77 d7 ba de 83 58 bb 19 a5 15 bc
       -0.025245406 -0.0016438687 -0.0033037583 -0.009133601
000060 90 7c b0 bc 68 6b 0d bc 76 8c 72 3c 02 0e 86 3c
       -0.021543771 -0.008631565 0.014803996 0.016364101
000070 b6 10 0b bd 4c 17 b7 3b d6 49 51 3b 6b 25 33 3c
       -0.033951484 0.005587494 0.0031934879 0.010934214
000080 8c 28 01 bd 0d d2 2a 3c fb c2 13 3c cb 0c 83 bc
       -0.03153281 0.010426057 0.009018655 -0.015997311
000090 ab 5b e0 bc 2e 97 35 3b ee e6 df bb a3 8f 23 3b
       -0.02738746 0.0027708518 -0.006832949 0.002495744
0000a0 1f 53 e2 bc 66 ef b0 bb 32 05 c6 3c ee c9 aa bb
       -0.027627526 -0.0053996323 0.0241724 -0.00521206
0000b0 3c b2 33 bd c2 9c 11 3b 03 fb 97 3c 38 b3 a1 3b
       -0.04387115 0.002221868 0.018552309 0.0049346946
0000c0 d1 53 bb bc 1e 48 18 3c 03 ec 6c ba 43 2c f6 3a
       -0.022867115 0.009294538 -0.0009037854 0.0018781502
0000d0 54 9b 04 bd 9e 11 fc 3b e8 f4 0c 3c 89 60 44 3b
       -0.032374695 0.00769253 0.008603312 0.0029964766
0000e0 0f 14 2f bd f9 e2 a1 3c 99 b1 66 bb af 83 9f 3a
       -0.04274374 0.01976155 -0.0035201071 0.0012169982
0000f0 44 90 26 be 98 28 77 bd 51 7a 3c 3e ae ec 12 3e
       -0.1626597 -0.060341448 0.18406035 0.14348099
000100 27 91 17 be 48 5b 21 bb de e5 42 3e 13 bb 09 3e
       -0.14801465 -0.0024621058 0.19033 0.1345027
000110 aa 10 f7 bd 7d 61 db 3c 56 89 14 3e 84 61 19 3e
       -0.12063725 0.026779884 0.14505515 0.14978606
000120 e6 7d 01 be 43 db a5 3d 90 22 13 3e 5c 6d 18 3e
       -0.12645683 0.080984615 0.14368653 0.14885467
000130 cd b7 05 be e8 77 e3 3d b0 23 c2 3d 20 53 1e 3e
       -0.13058396 0.11106855 0.09479463 0.15461397
000140 77 9a f6 bc 2d 0a de 3a 16 1d b9 bb a5 f1 4a 3a
       -0.030102951 0.0016940288 -0.0056492193 0.00077416963
000150 f0 1c 03 bc 2a 18 5e 3b 4c a2 f7 bb e5 3a c3 bb
       -0.008002505 0.0033888915 -0.007557189 -0.0059579485
000160 82 c1 2d bc b3 ac f1 3b 0b 10 71 bb 1b 56 8c 3b
       -0.010605218 0.0073753237 -0.0036783244 0.0042827255
000170 2d 7d 27 bc a1 8e 9a ba 8e cc 23 bc 3f 9d 1f 3c
       -0.010222715 -0.0011791774 -0.0099975 0.00974208
000180 2c 91 87 bb 4e cc d0 bb b7 56 27 3c 44 70 1b bc
       -0.004137179 -0.0063720113 0.0102135455 -0.009487215
000190 1c 33 cc bc 57 30 9d 3a 31 89 03 3c 74 d7 36 3c
       -0.024926715 0.0011992556 0.008028314 0.011159766
0001a0 1b bd d9 bc a6 35 2d 3c 6f 6b 0f bb 85 e7 cf 3a
       -0.02657943 0.010571873 -0.0021884104 0.0015861845
0001b0 41 36 05 bc be b9 79 bb bf d1 ad ba 11 db 9a bb
       -0.008130611 -0.0038105096 -0.0013261362 -0.004725822
0001c0 b7 56 b7 bc 27 4e 36 3c a0 a0 3b bb 7b 09 0d 3c
       -0.022380216 0.011127031 -0.0028629676 0.008608217
0001d0 51 3d c9 bc 17 98 b7 bb 72 3d 16 bb 17 6b 4b 3b
       -0.02456537 -0.0056028473 -0.0022924808 0.0031039172
0001e0 32 56 21 bc a8 d2 a5 bb 26 5e 3c bc 0b a2 31 3c
       -0.009847211 -0.0050605126 -0.011497056 0.010841857
0001f0 e1 e3 aa bc f3 42 22 bc 6e d4 3b bc 55 34 76 3b
       -0.020860614 -0.009903657 -0.011464221 0.0037567813
000200 c2 2c 2c bd 91 29 92 bb 99 7b c7 bb 9c 61 6b bc
       -0.042034872 -0.0044605215 -0.006087732 -0.014366534
000210 42 42 0c bd 10 41 cb 3b 5d a4 56 3c e2 03 94 3b
       -0.034242876 0.0062028244 0.013100711 0.0045170644
000220 3a 24 77 bc d0 d4 6a 3b 52 d4 16 3b 12 7e b2 3a
       -0.015084321 0.0035832413 0.0023014736 0.0013617894
000230 99 92 f5 bc c6 2e a4 3c 22 ed 22 3c 32 99 77 3b
       -0.02997713 0.020041835 0.009944232 0.003778052
000240 af e6 32 bd b3 3a 05 bc 39 29 33 ba 05 a1 6a bb
       -0.04367703 -0.008131671 -0.0006834451 -0.0035801542
000250 5c 81 15 bd e8 73 68 bc ab 4f aa bb 76 ae 95 3b
       -0.03650032 -0.01418779 -0.0051974854 0.0045679165
000260 cf 99 d6 bc ca 8d 42 3c 42 79 5d bb b3 10 6b bc
       -0.026196389 0.011874625 -0.00337942 -0.014347243
000270 7f 64 b9 bc 54 18 5a ba c2 0b 3d bc 27 70 8a bb
       -0.022630928 -0.0008319665 -0.011538448 -0.0042247954
000280 f4 76 ea bc a8 39 76 ba d5 d9 87 3c 6e 4a ea bb
       -0.028621174 -0.0009392747 0.016583363 -0.007149986
000290 43 d7 98 bc 29 51 1e bc 04 64 6e bb b8 ff e3 3b
       -0.018657332 -0.009662905 -0.0036375532 0.0069579743
0002a0 6c db 01 bd 00 97 a2 3b d1 70 75 bc 33 5a 79 3c
       -0.031703398 0.0049618483 -0.014980511 0.015219259
0002b0 d4 3b d6 bc 47 54 e8 3a a5 86 08 bc c9 99 0d bc
       -0.026151575 0.0017725312 -0.008332883 -0.008642622
0002c0 3a 98 03 bd fc 71 01 3c 4b c0 1d bb a5 5a 32 3b
       -0.032127596 0.007900711 -0.0024070914 0.0027214673
0002d0 f5 79 25 be ec 30 63 3c d6 45 52 3d 4e 35 55 ba
       -0.16159804 0.013866644 0.051336132 -0.0008133248
0002e0 56 04 17 be 3e 8a b6 3b d0 2a c6 3c fd df d7 3b
       -0.14747748 0.005570679 0.024190336 0.006587981
0002f0 bf aa 25 be d0 90 5e 3c b4 69 34 3c 8c 14 4f 3c
       -0.16178416 0.013584331 0.01101153 0.012639176
000300 d9 23 08 be e1 02 d9 3c 53 1c f1 bc 10 c0 0f 3c
       -0.13294925 0.02649063 -0.029432451 0.008773819
000310 57 3d 21 be 02 50 79 3d c0 9a 4d bc 80 e3 28 3c
       -0.15746056 0.060867317 -0.012549102 0.0103081465
000320 38 56 42 be e1 3e c1 bd 71 4e 46 3d 4d 8a fd 3d
       -0.18978202 -0.09435821 0.04841465 0.123798944
000330 59 59 33 be 09 a3 8c bd 0c b1 8c 3d f0 f2 e6 3d
       -0.17514552 -0.06867034 0.068697065 0.112768054
000340 74 82 46 be f7 dd 3b bd d4 b1 a9 3d 74 97 05 3e
       -0.19385701 -0.04586598 0.08285871 0.13046056
000350 eb 88 60 be 38 51 94 bc ab 03 e9 3d 24 6e 06 3e
       -0.2192723 -0.018105134 0.11377653 0.13127953
000360 e0 2f 7f be 67 ac a6 3c 77 f6 d0 3d a5 34 19 3e
       -0.24920607 0.02034588 0.102032594 0.14961489
000370 19 3d e7 bc 4f dc 2d bb 18 63 4e 3a 0d 75 fa bb
       -0.028227376 -0.002652902 0.00078730425 -0.007643348
000380 08 24 08 bd 45 aa 54 bc db 40 68 bc e1 c5 39 bc
       -0.033237487 -0.012980049 -0.014175619 -0.011338682
000390 95 18 23 bd c8 89 3f 3b 88 db b9 3b b4 bc 6f bc
       -0.039818365 0.002922641 0.005671922 -0.014632393
0003a0 77 9b ea bc bb 9f 55 3c 0b e5 47 3c e1 63 dc 3a
       -0.028638585 0.013038571 0.012200604 0.0016814434
0003b0 e5 28 a4 bc 09 8e b7 3a 28 3d 98 3c b7 eb 2a 3c
       -0.020039031 0.0014004122 0.01858385 0.010432175
0003c0 38 45 39 bd bc 71 ad 3b ca 5f 73 3c 7e 78 a3 3a
       -0.045232028 0.005293099 0.014854381 0.0012471823
0003d0 a8 d6 1e bd 35 10 05 3c 09 61 b6 bc c3 b7 85 bc
       -0.03877893 0.00812154 -0.022263067 -0.016322976
0003e0 26 79 4c bd 49 c5 b6 3c 14 7e 7a 3a 72 83 8d 3b
       -0.049920224 0.02231087 0.000955553 0.004318648
0003f0 82 a0 1e bd b4 d6 dc bc 1d cd 05 bc 1f c3 7e 3a
       -0.03872729 -0.026957847 -0.008166579 0.00097184064

1.bias f4 [32]
000000 44 6f 6a bc 39 7b 17 bd fa 51 10 bd 0c 80 b2 bd
       -0.014308754 -0.03698275 -0.03523443 -0.08715829
000010 b3 c0 19 bc 7a ec bb bc fe 28 f2 bc 4a cb 1f bc
       -0.009384322 -0.02293991 -0.029560562 -0.009753058
000020 62 f9 82 bc ca 71 2f be bc 88 28 be 76 a3 c7 bc
       -0.015988056 -0.17133251 -0.1645841 -0.024369936
000030 af 21 f3 bc 08 3c f0 bd 09 07 17 3f d2 bd f8 3e
       -0.029679148 -0.117302 0.5899511 0.4858232
000040 6e 10 5b bf cf 25 9d 3e 46 23 6d 3e 36 a5 f8 bc
       -0.85571945 0.30692908 0.23157987 -0.030352216
000050 73 39 12 bd 93 b1 f4 3e be 19 49 bf 10 48 ee 3e
       -0.03569932 0.47791728 -0.78554904 0.46539354
000060 1c 37 ca bc 31 21 00 3f c1 8e 00 3f 1d 99 b0 3e
       -0.024684481 0.50050646 0.50217825 0.34491816
000070 23 d0 83 bd b2 56 e3 bc 0b aa 84 bd 2d cd 49 3e
       -0.06436183 -0.0277513 -0.064777456 0.19707175

4.weight f4 [16, 32]
000000 86 f1 08 bd b7 4e 39 bb 39 7b 34 3c 2b b8 5b be
       -0.03343346 -0.0028275677 0.011015707 -0.21456973
000010 ef 13 f0 bb 7e 73 17 bb fe 5f 3d bc 6d 33 f5 bb
       -0.007326595 -0.002310961 -0.011558531 -0.007482937
000020 0a 63 e6 bb e0 ea 50 bd f4 53 d4 bd 5d e1 5c 3d
       -0.0070308493 -0.051005244 -0.10367575 0.05392586
000030 82 f8 82 3a 04 78 32 bc 90 0c 32 bd a7 dd d5 bd
       0.0009992274 -0.010892872 -0.04346901 -0.104426675
000040 24 79 c8 3e 83 aa 8a 3b d1 74 91 3c 9d 08 ad 3b
       0.39154923 0.0042317524 0.017755898 0.005280568
000050 0f 2b 94 bb 24 e0 26 be bc 3b dd 3e 63 cf 65 bd
       -0.0045217345 -0.1629644 0.43209636 -0.056105983
000060 b0 c5 65 bc 9a 45 16 be 72 b7 52 bd 88 c5 e8 bd
       -0.014024183 -0.14674988 -0.05144448 -0.11365801
000070 fc 26 29 bd 7b ab e3 bc b8 29 ed bd 63 e2 26 bd
       -0.041296944 -0.02779173 -0.11580223 -0.040743243
000080 4f f3 a8 bb 6e a6 d8 3b bc 30 bc bb 3c 50 3c bd
       -0.005155958 0.006611637 -0.0057431143 -0.045974955
000090 ba 78 6d 3b 6e eb cc bb 83 52 9f 3b e5 31 05 bd
       0.0036235289 -0.0062536513 0.004862131 -0.032518286
0000a0 00 db 81 bb 55 16 6a bd ff 1c 94 bc 83 56 e9 3b
       -0.0039628744 -0.057150204 -0.018080233 0.0071209087
0000b0 19 83 11 bc 36 4f a6 bb d1 74 80 bc 5a ee f4 bc
       -0.008881354 -0.0050753606 -0.015680702 -0.029898811
0000c0 ec 5d dd bc 17 bc 25 bd 48 76 64 bd e9 8f 25 3c
       -0.027022325 -0.04046258 -0.055776864 0.010105112
0000d0 b8 07 08 bd 85 42 fa bb 44 63 82 bc 96 a1 55 bd
       -0.033210486 -0.0076373243 -0.015916474 -0.052156053
0000e0 56 4d a1 bc 10 b1 3c bd aa e0 cd bc 14 ae 1b bd
       -0.019690197 -0.046067297 -0.025131542 -0.03800781
0000f0 4d 51 a8 bb 9d 2a be bb 50 7f 8c bd 0e aa 4c bc
       -0.005136645 -0.0058034197 -0.068602204 -0.012491716
000100 49 6f 3f 3b 5f 5a c9 ba 99 ed 9e ba 40 1d fe 3d
       0.0029210618 -0.0015362016 -0.0012125253 0.12407923
000110 1d 59 1c bc 79 b7 8d 3a 5c b2 8e 3b 47 c9 d1 bb
       -0.009542731 0.0010812125 0.004354758 -0.006402168
000120 e5 63 15 bc 93 30 7f bc 4b 6d cd 3d ee db a4 3b
       -0.009118055 -0.015575546 0.100306116 0.0050311005
000130 7d 3b 7a bc eb c1 c6 3c ca b0 99 bc 26 fa 4a 3d
       -0.015272972 0.02426239 -0.018761057 0.049554966
000140 fa 1c 4b bf 74 30 03 3e 13 1d 0a bd db 0a a5 bb
       -0.7934109 0.12811452 -0.033719134 -0.0050366945
000150 13 e0 01 bc 8a cf 43 3c c5 ca 15 bf 22 a7 1a be
       -0.007926959 0.011951337 -0.58512527 -0.15102819
000160 d3 dc ae ba 7e fb b8 3d 2b d0 50 bd 0a 89 46 bd
       -0.0013340957 0.09032343 -0.050979774 -0.048470534
000170 c4 b4 c7 bc 4f 3f e4 bb 6b 91 64 3c d0 63 f7 ba
       -0.024378188 -0.006965555 0.013950686 -0.0018874351
000180 34 de 39 bc d2 cc 9b bc 65 8a fd 3b 0e 0b 1e bd
       -0.011344481 -0.019018564 0.007737445 -0.03858476
000190 e5 ba c6 3b 76 26 94 3b 6d 7c 5d 3b 2e 0e b2 3a
       0.00606476 0.0045211865 0.0033796087 0.0013584548
0001a0 47 3e 9e 3c 8c 55 c3 bc 65 81 52 bd 35 12 8d bb
       0.019316806 -0.023844503 -0.05139293 -0.004305149
0001b0 c2 47 41 3c 38 ac 3d 3c ea df 90 bf 93 f0 6b 3d
       0.011796894 0.011576705 -1.1318333 0.057602476
0001c0 e6 8e 80 bf d5 02 ca 3c 7a 81 88 3d 80 0b a1 3c
       -1.0043609 0.024659554 0.06665321 0.019658804
0001d0 81 36 1b bd fa 61 64 bf 23 da 47 bf 7a 0e 39 bf
       -0.037893776 -0.89212 -0.78067225 -0.72287714
0001e0 28 26 03 3c 50 37 15 bc 33 26 88 bf 09 83 21 bf
       0.008004703 -0.009107426 -1.0636657 -0.6309057
0001f0 12 51 b7 bc 08 a2 20 3b 8f 17 bd bc 3b 93 83 3d
       -0.022377525 0.002451064 -0.023082523 0.06424566
000200 bf 8d f8 bb 8b 31 57 bb 37 bb 7f 3c e3 1e 24 bd
       -0.007585257 -0.0032835926 0.0156086 -0.04006852
000210 1e 42 3b bb fb e3 e6 3b a1 df 21 3c 3c 50 5c 3b
       -0.0028573344 0.0070462204 0.009879977 0.003361716
000220 00 ca d0 bc 10 66 28 bd 36 bd cb bc 70 f2 79 3b
       -0.025486946 -0.04111296 -0.024870496 0.0038138889
000230 b2 d8 02 39 d9 3e e4 bc c3 78 9b bf 44 1f 54 3d
       0.00012478491 -0.027862 -1.2146229 0.05178763
000240 6b 5b 84 bf f4 da 80 3d 4e 41 63 bc b0 c5 d6 3b
       -1.0340399 0.06291762 -0.01387055 0.006554328
000250 31 be 6e bb 66 88 48 bf 04 8d 36 bf fb c9 43 bf
       -0.003642928 -0.7833313 -0.7130892 -0.7648007
000260 e3 e7 6b bc ca c3 44 3d 18 5e 88 bf be b1 1b bf
       -0.014398548 0.04803828 -1.0653715 -0.6081809
000270 db bc 3b bd 88 9a 3b 3c 43 2f f9 3c b1 1b 08 3d
       -0.045834403 0.011450417 0.030418044 0.033229534
000280 e4 b3 f2 bc 52 23 08 bc 2a 98 a1 bc 9b 13 80 bb
       -0.029626794 -0.008309202 -0.019725878 -0.003908587
000290 70 93 7b 3b d4 87 24 bb 05 e1 19 3c 61 75 52 3b
       0.003838744 -0.0025105374 0.009392028 0.003211342
0002a0 cb 2e 31 bb 35 b8 50 bb 0b c2 c4 bc b2 6e ac 3b
       -0.0027035947 -0.0031848077 -0.024018308 0.0052622193
0002b0 b9 6f b9 3c 0f 06 a9 bc 71 f9 a9 bd d4 7b e6 bd
       0.022636281 -0.020632772 -0.0829953 -0.11254087
0002c0 5c f0 54 3b 7b ce 27 bd ef 5c 54 bc 27 ee 2b 3c
       0.0032491898 -0.0409684 -0.01296161 0.010493792
0002d0 fb ee 48 3c 72 4c 8b bd c8 a7 ae bd 0a 73 45 bc
       0.012264009 -0.0680169 -0.085280955 -0.012051353
0002e0 89 15 0b bc 81 2f cb bc 6c af ad bd b3 be 59 bc
       -0.008489021 -0.024802925 -0.08480725 -0.013290095
0002f0 f6 b5 9b bc 42 ed 8d 3a f0 87 07 bd ab 18 eb ba
       -0.019007664 0.0010828155 -0.033088624 -0.0017936429
000300 61 5d 0f bc f7 d1 19 bc 8e 01 ec bb af 92 09 bc
       -0.008750291 -0.009388438 -0.007202334 -0.0083967885
000310 ef d0 7f bb fd d2 b0 bb 4d 2c 92 bc db 08 54 3c
       -0.0039034446 -0.0053962455 -0.01784339 0.012941564
000320 81 0b 43 bb 9c a5 ba 3b 0c c6 fa bb dd 9d e0 bb
       -0.0029761496 0.0056960117 -0.0076530036 -0.0068547563
000330 b9 c1 4d 3b 5d db a3 ba 43 c3 91 bb 87 14 a6 bb
       0.0031395985 -0.0012501288 -0.004448326 -0.005068365
000340 87 1f 3e 3b c4 a6 a9 bb 00 f3 bc 3b a5 3e c8 3b
       0.002901049 -0.0051773507 0.0057662725 0.0061109834
000350 08 23 95 3b 87 d6 93 bb 7f 71 17 3a 9e 39 9c bb
       0.004551295 -0.0045116576 0.0005777105 -0.0047676107
000360 dd 2f 1e 3a bd 58 57 bb 21 05 b7 bb c6 5c 70 bc
       0.0006034354 -0.0032859289 -0.005585328 -0.014670556
000370 4b 35 76 3b e2 8f cd 3b 12 82 04 bc 5f 66 23 bc
       0.0037568386 0.0062732557 -0.008087652 -0.009973138
000380 97 1d 39 bb 50 f7 4b 3c 85 e4 95 bc e9 64 b0 ba
       -0.0028246397 0.012449101 -0.018297443 -0.0013457808
000390 f8 4b d4 bc 46 69 f4 3b 51 95 a7 bc 07 8c e4 bc
       -0.025915131 0.0074588386 -0.020456942 -0.027898801
0003a0 c8 a3 cd bc ea 39 1d 3c 0d 62 9f bc 67 7c de 3b
       -0.025102511 0.009596327 -0.019455934 0.0067897323
0003b0 7e 39 84 bc ff e6 a1 3a 23 51 ce bb 0b e7 47 bc
       -0.016140696 0.0012352167 -0.0062962933 -0.012201081
0003c0 34 a9 d8 3a 2d 1a b1 bb a6 4e a1 bc 54 89 d4 bb
       0.0016529919 -0.0054047317 -0.019690823 -0.0064860974
0003d0 6f b4 89 bc a9 b6 8f bb 49 a7 a2 bc bb 6a 9a 3a
       -0.01680967 -0.0043857885 -0.019855158 0.0011781076
0003e0 b3 93 bb bb 0c 0b 38 bc 8a a0 18 3b fa be 83 bc
       -0.005724394 -0.0112331025 0.0023289048 -0.016082276
0003f0 55 7e 99 bc cd 00 23 bc 0a d2 28 bc d9 95 44 bc
       -0.018736998 -0.009948921 -0.010303983 -0.011998617

4.bias f4 [16]
000000 af 83 65 3e 97 02 53 bc 5f c5 87 3e 30 2b 88 3e
       0.22413515 -0.012879035 0.2651777 0.2659545
000010 eb b6 7b 3e 01 44 86 bd ee 73 08 bc 89 6e 2e bc
       0.24581496 -0.065559395 -0.008328421 -0.010646471
000020 98 94 ef bc 0f 7d 6a 3e f4 e4 8b 3e 26 a7 0e bc
       -0.02924566 0.22899269 0.27323115 -0.0087068435
000030 6a f3 e3 bc ae cb 7c 3e 03 cc 0d bd da b6 18 bd
       -0.02782603 0.24687073 -0.03461839 -0.037283756

7.weight f4 [1, 16]
000000 b6 7d d1 3e ad 0f 93 3b 3e 85 85 bd 4b 6a 96 bf
       0.40916222 0.0044879527 -0.065195546 -1.1751188
000010 8b 28 89 bf df aa e0 bc b9 4a a2 bc a5 07 09 3c
       -1.0715498 -0.027425228 -0.019811021 0.008363639
000020 f4 a5 78 3d 07 13 95 bf 40 67 8e bf d6 8c dd ba
       0.06070514 -1.1646432 -1.1125259 -0.0016902934
000030 22 ba 69 3c f7 e2 8a bf e5 16 8f bb 6a 79 f3 3c
       0.014265569 -1.0850514 -0.004366743 0.02972098
