models/mlp.pth (torch, 7589 bytes, 5 tensors)

1.weight f4 [32, 20]
00000000: 40d2 86bc e9b9 8ebb 7591 20bc a46d 8dbb
00000010: 60dc 85bc bd34 593c d354 943b 81d6 673c
00000020: 4683 07bc 382c 893c d505 c8bb d4e5 1e3c
00000030: 69c0 2ebc be07 5fbb 5ddd b9bc 0791 12bc
00000040: fcb5 5abc 0f01 88bb 7ff3 8239 54f6 a9bb
00000050: cdb3 33bc 1146 ba3a 553d c3bb f8b7 5b3b
00000060: cddd 30bc c35b c4bc e3cc ea3b c22c dc3a
00000070: afb4 22bc f466 72bc 7e85 5ebb b9e0 0b3a
00000080: 8c2e d5bc 8b9a 293c f37b bebb b6a7 9dbc
00000090: 0d17 b7bc 27b8 2abc 98cc 273c 71ba 113b
000000a0: 119a 9dbc b4f9 78bc e1b7 96bc e99c 06bc
000000b0: 3164 92bc d5bc 783c b9ec e13b f2ed ca3b
000000c0: 59b2 9bbc 1234 893a 5599 39bc c552 2b3c
000000d0: ad64 61bc 0a34 633a dc56 babb 57ff 4ebc
000000e0: d159 12bd 2ef2 9d3c e747 653c 5d5b 373c
000000f0: 228e a9bc 8e9f 0ebc d416 6f3c 2618 19bb
00000100: 94cd 1cbd 9a5b f63b 37a9 f4bb b917 093c
00000110: cc30 1cbd 75f2 96bc 3932 8c3c 9c4d 1b3c
00000120: 8e44 06bd 01df 24bc 62fd caba 9e0c 73bc
00000130: b770 c2bc b1af 253b a703 90bb 5f45 533a
00000140: 49e6 0ebd 8af4 91bb 29c6 2b3b 7ba7 e0bb
00000150: 86b5 aebc b22c 0cbc f499 883c 4961 6ebc
00000160: 5f5c 38bd 397b cc3c 93e0 b8bb 4da7 e23b
00000170: 2849 1cbd 4177 6d3c 2c00 f63b f417 89bb
00000180: 217e 3bbd 116f c8bb 33cf 2a3c 7be2 1bbc
00000190: 0ed0 bebc 3864 81ba 4b1b 893c b66a 45bc
000001a0: 92f5 16bd f8c3 7abb 8292 1b3c 6380 863a
000001b0: 1dfb 36bd b7d5 c53b 1c2b 153c bfcd aebb
000001c0: 8d64 14bd 280c 823c e02d 2bbb 5d51 dabb
000001d0: f00d 84bc bc63 923c 86aa abbb 491b a0bb
000001e0: 476d 40bc 58b8 30ba ea61 06bc 81b3 58bb
000001f0: d0e7 c4bc 2a77 2bba e181 7d3c 4df8 ee3b
00000200: 682b a7bc 0a2e 703b 5840 a6bb 8b02 6b3b
00000210: 655e b2bb 4f29 80bc 2b3d 18bb f2e9 4ebc
00000220: f66a 43bc 56dc 92bb f451 0d3c b1da a7ba
00000230: 9705 4cbd 729a 80bc 2746 89bc ee7a 25bc
00000240: f8bb 69bd 5471 e8ba 1d73 8ebc d3c6 093c
00000250: 55bb 4ebd a274 683c 7ce2 763c 75ef 473c
00000260: 153f d8bc e705 593b 485a 9d3c f7a8 8c3c
00000270: 647f 20bd 42b9 0cbc cd7f 973a ef40 cdbc
00000280: be9b b73e 6c53 91bd 602b 70bd 1434 383e
00000290: 9c5f d93e b3c4 d0bd 5223 6dbd 914d 2b3e
000002a0: 3b80 b53e 9995 cdbd 044b 22bd adca 313e
000002b0: eb2c 633e 987b e9bd a8e7 9e3c fd49 4f3e
000002c0: da81 473e babf 08be e086 313d 266e 663e
000002d0: eeb4 21bd b372 f83c e4d4 46bc a0a8 ec3b
000002e0: be47 85bc f259 b13c 1c2c 913b 20f8 0d3a
000002f0: 86b8 23bd 78c3 453c db14 15bb ba0a 543b
00000300: 9514 4ebd e276 273c 8b52 67b9 1c7d 0fbb
00000310: afde 34bd e383 babb 1c44 c4bc 5b3f 4bbc
00000320: a5b2 30bd 7af6 6ebc 155b ef3b d4a9 2dbb
00000330: 9fbc b8bc fe2d 7ebb 998e e5bb 6208 fabb
00000340: 856c 22bd db0e 243c 21b2 97bc afc1 3e3c
00000350: 2714 9abc 2655 8dbb 909f 8f3b 23db fb3b
00000360: b54d dabc 8893 b8ba 21cf bb3b d544 5dbb
00000370: a9d8 1a3c 04ad e0bb 93ab e63b f5e1 f9bb
00000380: 556b adbc 7271 24bc 81dc 193a 0007 fd3b
00000390: 8bf5 00bd 5e28 1e3b 6a3f 93bc 0a35 023c
000003a0: 3492 b9bb e5fa e53b 5e85 fabb 37c9 e73b
000003b0: 0696 1cbc 56d1 4a3c aa0e 91bb f3ef 0f3a
000003c0: 9f68 6bbd 8a32 cebc 5f31 93bc 7aa0 623d
000003d0: 4afc 78bd ecdb c2bc 18fc eebc 597a 8b3d
000003e0: 4945 8abd 6740 4bbc 0a56 adba c21d 943d
000003f0: 348d 82bd a756 37ba fc2f f53b 01ec 783d
-0.016457677 -0.0043556583 -0.009800305 -0.0043160487 -0.016340435 0.013257203 0.0045267134 0.014150263
-0.008271044 0.016744718 -0.006104211 0.00969835 -0.010665991 -0.0034031714 -0.022688562 -0.00894571
-0.0133490525 -0.004150517 0.0002497695 -0.0051868353 -0.010968161 0.0014211555 -0.005958239 0.0033526402
-0.010795069 -0.023969537 0.0071655377 0.0016798007 -0.009930774 -0.014795054 -0.003395408 0.00053359155
-0.026023172 0.010351787 -0.0058131157 -0.01924501 -0.022349859 -0.010419882 0.01024165 0.0022236372
-0.019238504 -0.015196253 -0.018398227 -0.008216121 -0.01787004 0.01518174 0.0068946746 0.006192916
-0.019005941 0.0010467789 -0.011328061 0.0104567455 -0.013756913 0.0008667117 -0.005686624 -0.01263412
-0.035730187 0.01928052 0.013994194 0.011191216 -0.020697657 -0.008705033 0.014592845 -0.002336034
-0.038281992 0.007518244 -0.007466461 0.008367472 -0.038132474 -0.01842616 0.017113792 0.009478953
-0.032780223 -0.010062934 -0.0015486891 -0.014834551 -0.023735387 0.0025281722 -0.0043949666 0.00080593483
-0.034887586 -0.0044542 0.0026210642 -0.0068559027 -0.021326791 -0.008555578 0.016674973 -0.014549562
-0.045009967 0.0249611 -0.0056420057 0.0069169165 -0.038155705 0.014493764 0.0075073447 -0.0041837636
-0.045774583 -0.006116756 0.010425377 -0.009514446 -0.023292568 -0.0009871786 0.016736647 -0.012049368
-0.036855288 -0.003826378 0.009495379 0.0010261651 -0.044673074 0.0060374397 0.009104516 -0.0053345854
-0.036228705 0.015874937 -0.0026119873 -0.0066625313 -0.016119927 0.017869823 -0.005238834 -0.004886065
-0.011744804 -0.00067413365 -0.0082020555 -0.0033065977 -0.024036318 -0.0006540889 0.01547286 0.0072927834
-0.02040644 0.0036648535 -0.0050735883 0.003585967 -0.0054433816 -0.015644697 -0.0023229818 -0.012629019
-0.011927357 -0.0044818325 0.008625496 -0.0012806264 -0.04981002 -0.015698645 -0.016757084 -0.0101001095
-0.057064027 -0.001773397 -0.017388875 0.00840922 -0.050471622 0.014187964 0.0150686465 0.012203087
-0.026397267 0.003311509 0.019208089 0.017170412 -0.03918399 -0.008589091 0.0011558473 -0.025055377
0.3586101 -0.070959896 -0.058635116 0.17988616 0.42455757 -0.101937674 -0.057895012 0.16728808
0.35449395 -0.10038299 -0.03962232 0.17362471 0.22185104 -0.11400527 0.019397572 0.20243068
0.19483128 -0.13354388 0.043341517 0.22502956 -0.03947919 0.03032813 -0.012135718 0.00722225
-0.01626956 0.021649335 0.004430307 0.00054156967 -0.039970897 0.012070529 -0.0022748027 0.0032355026
-0.050312597 0.010221215 -0.00022060626 -0.002189464 -0.04415768 -0.0056919917 -0.023958258 -0.012405242
-0.04313912 -0.014585132 0.007304559 -0.002649893 -0.022550879 -0.0038784738 -0.0070055244 -0.007630394
-0.039654274 0.010013307 -0.018517556 0.011642857 -0.018808438 -0.004313129 0.004383035 0.0076860352
-0.026648382 -0.0014082054 0.005731479 -0.003376295 0.00945107 -0.0068565626 0.007039496 -0.007625813
-0.021169344 -0.010036813 0.00058693445 0.0077217817 -0.031484168 0.0024132947 -0.017974574 0.007947216
-0.0056631807 0.0070184343 -0.007645293 0.007073547 -0.009557253 0.012379011 -0.004426797 0.00054907723
-0.05747282 -0.025170583 -0.017967878 0.055328824 -0.060787477 -0.023786508 -0.029172942 0.06810445
-0.06751496 -0.012405491 -0.0013224494 0.07232238 -0.063745886 -0.0006993808 0.007482527 0.060771946

1.bias f4 [32]
00000000: 494d d9bc 04ac 13bd e88d b1bc 7f30 a1bc
00000010: 7d40 c5bc cbe1 19bd e66a 6dbc c8e9 dcbc
00000020: 595d 443f cd5e 4cbd 2215 5cbc b59a b4bc
00000030: 4b59 febb a245 76bd 2662 603f 37e8 4a3f
00000040: 87e7 9abf 367f 98bc 78de 1fbd 4a58 88bc
00000050: 608b 48bd f5dc dc3e b8a6 2ebc 16c7 ddbb
00000060: e3b8 b5bc b8d1 34bc 1640 e9bb 0f26 a03c
00000070: 0e83 d3bc e5e6 8ebc f465 0cbd 00ac 3ebc
-0.02652611 -0.03605272 -0.021674111 -0.019676445 -0.024078602 -0.03756885 -0.014490819 -0.026966944
0.7670494 -0.049895097 -0.013432773 -0.022046426 -0.0077621094 -0.060125 0.8764976 0.7926058
-1.2101907 -0.018615346 -0.039030522 -0.016643662 -0.048961043 0.43137327 -0.010659866 -0.0067681177
-0.022182887 -0.011036329 -0.0071182353 0.019549398 -0.025819328 -0.017444083 -0.034276918 -0.011637688

3.weight f4 [16, 32]
00000000: 71d7 f2bc 240b ddbb 45d8 3cbc 16a2 27bc
00000010: c254 0dbb 588c b2bb 0ec9 cf3b c3c9 2abc
00000020: 6910 b5bb e45f 5dbc ae22 52bc b6bd 123b
00000030: bf40 83bc 45ac 93bc a65c afbc ebb7 afbb
00000040: f286 a1bc ed17 1ebc 0272 913c 27e8 80bb
00000050: 5942 853c 5b20 99bc 3f43 bcbc 2969 8fbc
00000060: ebe1 bb3b a3d8 3c3c acdb ccbc 93b8 acbb
00000070: 9106 05bc c5a2 a3bc 10c6 23bc 52cf 163b
00000080: 750f fdbc 74d4 32bb d135 76bc 2483 95bc
00000090: d622 1bbb 4cca 87bc 5dad 873b d9ac 83bc
000000a0: 80c7 60bc 70ea a0bc d90b cdbb 4414 b83b
000000b0: 8d8c 82bc 9b61 63bb a483 0abd d965 56bc
000000c0: 43b2 1fbd 6e00 88bc 2021 4d3b 7906 993a
000000d0: 746a 52bb ce74 98bc 4234 eebc 634e 3f3b
000000e0: 6bde cf3c 3e8b 25ba d13f f4bb 5ee4 90bc
000000f0: 462a 35bb aebe d3bb ac0b 9b3b be55 22bb
00000100: 78cd b03b 2a9f ac3b 04a8 a63b 1d52 923a
00000110: 2563 7bbc 2b3d 5cbc 103e f13b 787b aa3b
00000120: 5730 3fbc cc19 5a3b 3c16 0c3c f8c6 17bc
00000130: a986 4fbc 7a66 82bc 20b5 03bd fb4b 3ebc
00000140: 29ca 023c 3f37 0ebc ed58 b3bb 8f63 5f3c
00000150: c60d b1bc 9c62 d0bb fe87 cc3b dca7 433c
00000160: a0c7 68bc edd8 043a 86fb ef3b 1efa 2739
00000170: 7f6a 8abb 07c9 15bc a4f8 e13b 972d 4d3c
00000180: 12ac 87bb d491 183c aa56 2c3c 4581 b6bc
00000190: 4e8f 00bc 8647 a13c a10c 2b3a 129c 5ebc
000001a0: 5ee7 a53d 215c 8d3c 7385 a0bc a66d 993c
000001b0: a712 36bc 9c90 cf3a 54ee 9f3e f96c fdbf
000001c0: e3b0 70bf d03e 3c3c 9ff7 863c ac1a 2a3b
000001d0: f482 703c 311d 13be d2bd 5ebc d2bc 2abc
000001e0: fd70 fcba d1b3 6e39 241f 133b 7e6a acbc
000001f0: 94c0 9a3c f4dc c43b effd 0fbb c07d fe3a
00000200: 804e a03b 64d0 dcbb 2a98 c83b 2bfb df3a
00000210: 73d0 3fbc 6234 08bc 1fb3 9a3c f1d3 45bc
00000220: 3d80 d1bd ccb6 b3bb 7bbe 833b 8e63 283b
00000230: d33c 6dbd 23fe 783c 520d 42bd 78b1 94bc
00000240: e5d6 51bf 304d be3c b3aa 0dbc 5992 79bc
00000250: 0a01 013c b93d abbd b927 863c 5131 21ba
00000260: d5cb 573b 8af6 ff3b a9e2 9d3c ab00 1dbe
00000270: a828 c5bb 125b 5dba 15ca c0bb d048 923b
00000280: ccde 82bb e2b1 41bc c060 d8bc 4977 cfba
00000290: 24e4 ffbb 48f2 493c 0bcc 193c 9b21 6fbb
000002a0: 6c2f 00bd cd46 2ebd 28f4 0abd f529 46ba
000002b0: 6015 6aba 9d0b bdbc 7d96 10bd 9926 a7bc
000002c0: f3be 4b3b 7a5d a3bb 6f86 dd3b dd24 11ba
000002d0: 659a a4bc 65cb e9bb fcfe c4bc 74c2 c53a
000002e0: 8ccf 913a 6a7a 4a3c 4a0d aebc afc1 20bc
000002f0: 59b8 063c 738a 843c 4b7f bbbc 2420 cbbb
00000300: 74b1 3c3c 2d0b c83b b9f0 353c 4c09 fb3a
00000310: 4b2d 96bc b66b 85bb 1483 90bb 46c0 083c
00000320: faf6 22bd f958 2e3c 0353 8a3c 9eb2 033c
00000330: 2940 b3bc 326f 973c 8b78 3abd e2c2 3cbc
00000340: f27d 4cbc a6a9 babb 50cc 51bb e639 953b
00000350: ca55 7abc 5495 41bd 8250 9d3c ddeb 783b
00000360: f7a8 8e3b 2090 a9bb 38df 123c 6341 0abc
00000370: 7b57 b63b 3bb7 d2bb ed38 1a3c b901 94bb
00000380: ae05 dfba 29c8 e43b 18ec 413b 3df5 8ebc
00000390: c7df 3ebc 2770 04bc bf25 05bb 8945 6cbb
000003a0: 7339 bfbb 292b 17bc 6938 55bb 019c 333c
000003b0: 8c3d 7c3b 509a 63bc 1584 93bc be34 95bb
000003c0: 0952 3a3b d890 ac3a ab3f a03b a781 52bc
000003d0: 9e7f 81bb d87c 0dbc 0994 2fbb 15ad 193c
000003e0: e96c e138 bc4a f1b9 5ccf b33b a5ec f739
000003f0: 7ebb 41bc 5141 13bc acc0 513c 7522 863b
-0.029643746 -0.006745713 -0.011526172 -0.010231515 -0.0021565412 -0.005448859 0.0063411063 -0.01042408
-0.005525638 -0.013511632 -0.012825651 0.0022390909 -0.016022084 -0.01802648 -0.021406483 -0.005362501
-0.019717667 -0.009649259 0.017754558 -0.0039339247 0.016266989 -0.018692186 -0.022981284 -0.017506199
0.0057337186 0.01152626 -0.025007091 -0.0052710264 -0.008119241 -0.019975075 -0.009995952 0.0023011756
-0.03089116 -0.0027287276 -0.015027479 -0.01825101 -0.0023671887 -0.016575955 0.0041405396 -0.016073631
-0.0137194395 -0.019643039 -0.006257516 0.00561765 -0.01593616 -0.0034695629 -0.03381695 -0.013085806
-0.038988363 -0.016601767 0.0031300262 0.0011674903 -0.0032106908 -0.018610384 -0.029077653 0.002919101
0.025374612 -0.0006314999 -0.0074538966 -0.017687019 -0.0027643605 -0.00646194 0.004731616 -0.0024770345
0.0053955875 0.0052679973 0.005085947 0.0011163388 -0.015343462 -0.013442318 0.0073621348 0.005202707
-0.01166924 0.0033279536 0.008550223 -0.009263746 -0.012666383 -0.015918005 -0.032155156 -0.011614795
0.007982769 -0.008680164 -0.0054732473 0.013634576 -0.021613013 -0.0063594114 0.0062417975 0.011941876
-0.014207751 0.0005067725 0.007323685 0.00016019537 -0.004224121 -0.009142167 0.0068960954 0.0125230765
-0.0041403854 0.009312112 0.010518709 -0.022278437 -0.0078466665 0.019687425 0.0006525014 -0.013587015
0.081007704 0.017255845 -0.019594884 0.018729042 -0.0111128455 0.0015835944 0.31236517 -1.9798881
-0.9401991 0.011489585 0.016475497 0.002595584 0.014679659 -0.14366604 -0.013595061 -0.010420995
-0.0019259747 0.00022764436 0.0022448981 -0.021046873 0.018890657 0.006007785 -0.0021971425 0.0019416139
0.0048921704 -0.0067387093 0.006121655 0.0017088404 -0.011707413 -0.00831327 0.01888424 -0.012074457
-0.10229538 -0.0054844376 0.00402051 0.0025694105 -0.057919335 0.01519731 -0.047375984 -0.01815103
-0.8196853 0.023230165 -0.008646655 -0.015232646 0.007873783 -0.08361382 0.016376363 -0.00061490113
0.003292789 0.007811372 0.019273119 -0.15332286 -0.0060168095 -0.00084440515 -0.005883465 0.0044642463
-0.0039938446 -0.011822196 -0.026413321 -0.0015828396 -0.007809179 0.012325831 0.009387027 -0.0036488536
-0.031295225 -0.04254799 -0.03392425 -0.00075593527 -0.0008929577 -0.023076827 -0.035299767 -0.020404147
0.0031089156 -0.0049855085 0.0067604105 -0.0005536804 -0.020093152 -0.007134842 -0.024047367 0.0015087859
0.0011124476 0.012358287 -0.021246571 -0.009811803 0.008222663 0.016179299 -0.022887846 -0.0061989
0.0115169175 0.006104848 0.011104756 0.0019152551 -0.018332144 -0.004071678 -0.004410157 0.008346623
-0.039786316 0.01064133 0.016885286 0.008038191 -0.02188118 0.01848564 -0.045525115 -0.011521073
-0.0124812 -0.005696493 -0.003201265 0.004554021 -0.015279243 -0.04726155 0.019203428 0.0037982382
0.0043536383 -0.0051746517 0.008964352 -0.008438441 0.0055646277 -0.006430534 0.009412986 -0.004516807
-0.0017015242 0.0069818688 0.0029590186 -0.017450923 -0.011650032 -0.00808338 -0.0020316688 -0.0036052188
-0.005835706 -0.009226599 -0.0032534844 0.010962487 0.0038488833 -0.013891771 -0.018007318 -0.0045534065
0.0028430244 0.0013165725 0.0048904023 -0.012848294 -0.0039519807 -0.008635722 -0.0026791117 0.009379645
0.00010749122 -0.00046022783 0.0054873656 0.00047287825 -0.011824487 -0.008987741 0.012802284 0.004093463

3.bias f4 [16]
00000000: 539f 37bb 0461 50bb 7d12 91bc 9f6f 563f
00000010: 62cc 4b3d 55b7 03bd 1b27 8bbd 3471 f4bc
00000020: 2745 dcbb 119d 97bd d0c8 e3ba 42ad 563f
00000030: 4bf7 85bb d367 51bc 2bbe f7bc 0428 bebb
-0.0028018549 -0.0031796107 -0.017709011 0.8376407 0.04975546 -0.03215726 -0.06794568 -0.029839136
-0.006722111 -0.07403005 -0.0017378572 0.8385812 -0.0040883175 -0.012781101 -0.030242046 -0.00580311

5.weight f4 [1, 16]
00000000: ba50 15bb bbc1 5bba e07a 34b9 d57a 99c0
00000010: 8941 f93d f879 b33b 14d4 83bb 9006 dbbc
00000020: 0751 54bb 2289 7bbc 28c1 6c3a de54 9fc0
00000030: 388f b1bb 8623 27bc 2bb7 93bc 9433 81ba
-0.0022783712 -0.0008383055 -0.00017211912 -4.796244 0.12170703 0.0054771863 -0.0040230844 -0.026736528
-0.003239693 -0.015352519 0.0009031468 -4.97911 -0.0054186843 -0.010201341 -0.018031677 -0.000985729
